models/model.pth (torch, 378536 bytes, 8 tensors)

conv1.weight f4 [32, 1, 3, 3]
000000 3b dd 8f be 58 ff af 3e 81 b1 80 3e 6e 9e fc be
       -0.28098473 0.343745 0.25135425 -0.49339622
000010 0d f9 4d be 84 dd 4e 3e ae 7e ab bd 77 ea ca be
       -0.20114537 0.20201689 -0.083737716 -0.39632007
000020 07 cb db be 50 3e ef 3d ee 6b 90 be 1c 3d 0e 3e
       -0.42928335 0.11681807 -0.28207344 0.13890499
000030 b3 62 30 bd 4a e9 96 3d a8 6d a1 3e a7 1e 99 3e
       -0.043062877 0.07368715 0.31528974 0.29906198
000040 13 86 50 be 85 f8 8e bd fe 64 15 bd 70 a6 77 3e
       -0.20363645 -0.06980995 -0.036473267 0.24184585
000050 bf 1f 8c 3e 5d e2 d1 be 38 21 e3 be 31 f3 90 3e
       0.2736797 -0.40993014 -0.4436128 0.2831054
000060 03 07 a6 3e 48 fa 5c be b3 1a 85 be b9 97 e1 be
       0.32427225 -0.2157985 -0.25996932 -0.44061068
000070 5f 58 f7 be ac 63 1f 3e f6 a5 f6 bd 17 09 88 3c
       -0.4830961 0.15565366 -0.12043373 0.016605897
000080 9a eb b1 3e 0e 61 88 3d 36 d1 ce 3c 0d 2a cf 3e
       0.34750062 0.06659137 0.025246244 0.4046177
000090 f6 71 1b 3e ab ff 24 3e 9c a3 8c 3e bb fc ac be
       0.15180191 0.16113155 0.27468574 -0.33786568
0000a0 98 84 70 be 37 5c b5 be 99 0a 81 bd 73 7f 4c 3e
       -0.2348808 -0.35421917 -0.063008495 0.19970493
0000b0 16 c3 01 be bd 39 8d 3e 41 d1 72 bd 84 67 ce be
       -0.12672076 0.27583113 -0.05928159 -0.4031335
0000c0 49 9a 93 be 41 64 c3 be 6e 49 cf be 36 dc bb be
       -0.28828648 -0.38162425 -0.4048571 -0.36691445
0000d0 ce 82 9c be 0b 2a 0d 3e 0b bd aa bc 03 b7 ad be
       -0.30568546 0.1378557 -0.020842096 -0.3392869
0000e0 e9 44 61 be dd b6 06 3f 5b 0c 04 be dc 4f e9 be
       -0.21998943 0.5262278 -0.12895338 -0.4556874
0000f0 ea 94 8d 3e 6a 47 fe 3d c8 fb 02 bf 32 15 b1 3e
       0.27652675 0.12415965 -0.5116544 0.34586483
000100 89 d0 cf 3d 76 78 9c 3c 83 0f 48 bc 9f d6 53 be
       0.10147197 0.019100409 -0.0122107295 -0.2068734
000110 ec 61 28 be 91 5d 90 3d 8e 2c 9b bd fb ba e3 bd
       -0.16443604 0.070490964 -0.075768575 -0.11119648
000120 2b fc 59 be 22 22 e2 be df 7c cc be 12 86 81 be
       -0.212876 -0.44166666 -0.3993902 -0.252976
000130 86 99 b9 be 60 41 a6 be e0 46 84 3e 76 dd 24 3f
       -0.36249942 -0.32471752 0.25835323 0.6440042
000140 26 2f 15 3f 17 2a 53 3e 44 56 b8 be de a9 83 be
       0.5827507 0.20621525 -0.36003315 -0.25715536
000150 f7 dc a5 3d a6 c5 a6 be 18 74 35 3e 2d 21 82 3e
       0.08098786 -0.3257267 0.17720068 0.25415936
000160 e7 89 da 3e c5 47 9c be 14 d6 d1 be 31 03 1d bf
       0.42683336 -0.30523506 -0.4098364 -0.61332995
000170 7c 3a cf be 61 9f e5 3c 7f b0 2d 3e bc 16 34 3e
       -0.40474308 0.0280301 0.16961859 0.17586797
000180 e2 94 91 3e 0e 1c 7e 3e 82 06 dd 3e ec 94 bc bc
       0.284339 0.2481539 0.43169028 -0.02302023
000190 0c c9 39 bd f8 63 9e 3e ad d7 39 3e ef bf b7 be
       -0.04535775 0.30935645 0.1814868 -0.3588862
0001a0 73 09 ce 3e 93 c4 98 3e ae 8d a3 be 55 2e f5 be
       0.40241584 0.29837474 -0.3194403 -0.4788691
0001b0 bc fb a6 3e ba ba fc 3e f9 b5 bd 3c c9 1f 02 3f
       0.32613933 0.4936121 0.02315806 0.5082975
0001c0 e3 11 3c be cd 42 93 be a9 ab fd be fa 57 1b bf
       -0.18366198 -0.28761902 -0.4954503 -0.60681117
0001d0 9f 52 3d be cc d9 1c be 46 70 1b 3e e2 2a 36 be
       -0.18488549 -0.15317458 0.15179548 -0.17789796
0001e0 fc 87 76 3e 23 9b 7c 3e 30 df 4a 3e dc d6 90 be
       0.24075311 0.24668555 0.19811702 -0.28288925
0001f0 a7 d0 6f 3e 2c 9b 90 bd c5 3f b8 3d 05 1e c3 3d
       0.23419438 -0.07060847 0.08996538 0.0952721
000200 eb 10 ee 3e 7c c4 33 be 30 82 a5 3e ce 0a a3 bc
       0.46497282 -0.17555422 0.32325888 -0.019902613
000210 61 af 0e be 7a e0 9e be d9 cc 18 bf cc 24 ba 3e
       -0.13934089 -0.31030637 -0.5968757 0.363562
000220 ed 1f 98 3e bb 16 2f be 56 16 0b 3e 15 d7 7c be
       0.29711857 -0.17098515 0.13582739 -0.24691422
000230 34 f4 13 bf 2d 9f 14 bf b4 a2 04 bf 01 bd 1b be
       -0.577945 -0.5805538 -0.51810765 -0.15208818
000240 21 e4 67 bd 51 0f 68 3e dc 8f e7 3e ad 31 91 be
       -0.056614045 0.22662093 0.45226943 -0.28358212
000250 08 04 dc be 84 6e 93 bd 11 94 2f 3d 22 d0 56 be
       -0.42971826 -0.071988136 0.042865817 -0.20977834
000260 5f 18 cc be be 99 f0 3d e4 52 56 be 3e bb 37 be
       -0.39862344 0.11748074 -0.20930058 -0.17942521
000270 30 76 c3 be d1 06 b4 be 81 ac f5 3e 25 15 e5 be
       -0.38176107 -0.3516145 0.47983173 -0.44742694
000280 26 bf 02 be bf c1 2e 3f 1f 61 50 3e 33 03 0f be
       -0.1276823 0.68264383 0.20349549 -0.13966064
000290 5f e7 e5 bd 29 c1 25 bc 47 40 50 3e 88 2e 2f be
       -0.11225771 -0.010116854 0.2033702 -0.17107594
0002a0 36 cb 9b 3e 69 42 43 bd 7b 57 d9 be 42 4f a9 be
       0.30428475 -0.047670756 -0.42449555 -0.3306828
0002b0 26 0b 3f be 48 2b 7d be 39 72 a6 3d fa d7 8f be
       -0.18656597 -0.24723542 0.08127255 -0.28094465
0002c0 30 b3 94 be 73 7e 45 be a6 bb 81 be b1 17 c7 3e
       -0.2904296 -0.19286518 -0.25338477 0.38885263
0002d0 7a da b4 be 14 a3 bd be 08 be d8 be cd 62 7c 3e
       -0.35322934 -0.3703848 -0.42332482 0.24647065
0002e0 af da 21 bd 2c b1 06 bf c2 d8 af 3e c8 3c 33 3e
       -0.039515194 -0.5261409 0.3434506 0.17503655
0002f0 d4 2d 24 bf 36 0c 02 3e 8d e2 03 be 95 28 34 be
       -0.6413243 0.1269997 -0.12879391 -0.17593606
000300 02 2e b0 3e d7 59 99 be c3 55 5d be 09 1c cb 3e
       0.344101 -0.29951355 -0.21614747 0.39669827
000310 87 01 ae 3e 66 a9 1d be f1 85 88 3e d9 33 84 bc
       0.3398554 -0.15396652 0.2666469 -0.016138004
000320 75 21 06 3d 75 85 d0 bd 0a 8e 03 bd 0a fb d5 3e
       0.03274675 -0.10181705 -0.03211788 0.4179309
000330 60 5f 36 be 5a 12 b7 be 91 8e 2c 3e ab 8c a0 3e
       -0.1780982 -0.3575619 0.1685126 0.3135732
000340 b2 ea 84 3e 85 c7 b2 be 3a 0f d9 3e f4 7e f6 be
       0.25960308 -0.34917846 0.4239443 -0.48143733
000350 31 16 9d be 4f 59 cf bd 2a 5c 14 bf 80 08 c5 3e
       -0.30680993 -0.10124456 -0.5795313 0.38483047
000360 74 45 a7 3c a6 3e b0 3e ce 58 f8 be 88 89 13 3e
       0.02041886 0.34422797 -0.48505253 0.14407933
000370 3f 13 65 be 83 da a9 be c9 74 d3 be 05 6a 8f be
       -0.22370623 -0.33174524 -0.41300038 -0.28010574
000380 c9 95 a2 be d8 db 3b bd 75 79 e7 be e5 a7 5e 3d
       -0.31754902 -0.045863956 -0.45209852 0.054359335
000390 70 a9 ae be e6 30 84 3d 93 6a a4 3e f3 fc c2 be
       -0.34113646 0.06454639 0.3211256 -0.3808361
0003a0 ef 51 a6 be b6 20 00 bc df f5 c0 3d bf e0 9b 3e
       -0.32484385 -0.007820299 0.09421896 0.30444905
0003b0 d8 50 30 be 66 e9 8a 3e cd 85 aa 3e 19 89 00 bf
       -0.1721834 0.27131194 0.33305207 -0.50209194
0003c0 93 6d d8 3e 63 7b 9b be 21 c7 e9 be 4f 82 d4 3e
       0.42271098 -0.30367574 -0.45659736 0.41505668
0003d0 4e 32 8e be a3 43 bd bd ad f8 23 be ef e7 c4 be
       -0.27772754 -0.09241416 -0.16012831 -0.384582
0003e0 a6 6e ac 3d 89 4c 17 3e 9b 37 5c be 55 31 d5 3e
       0.08419542 0.1477529 -0.21505587 0.416392
0003f0 96 be 77 be c2 b1 94 bb 8a 36 aa 3d 6a 2d e4 bd
       -0.24193797 -0.004537792 0.08311184 -0.111414745

conv1.bias f4 [32]
000000 85 ca 70 bd 71 8e 68 be 47 62 cf bd 49 dc 1f be
       -0.058786888 -0.22710587 -0.10126167 -0.15611376
000010 42 b1 88 bd c8 96 90 3e 2c 19 5a 3c f5 c8 02 bd
       -0.06674434 0.28240037 0.0133116655 -0.03192993
000020 29 5d d9 3d b1 58 7d 3d 71 ea 73 bd 96 db aa bc
       0.10613472 0.06185216 -0.059549753 -0.02085666
000030 2e 84 18 be cb b6 bf 3c ad 4a 75 bd 72 d4 93 3e
       -0.14894173 0.023402592 -0.05988567 0.2887302
000040 80 67 8d b5 ad 16 21 be a1 2e 2f be 2c 12 ca 3d
       -1.0535441e-06 -0.15731306 -0.17107631 0.09866747
000050 c7 5d 15 3d ce 2f 1e be e9 fd 99 be 35 b8 2f be
       0.036466386 -0.15447924 -0.3007653 -0.17160113
000060 87 f7 85 3e c5 e5 02 be ee 8a 80 3d c0 f6 50 bd
       0.2616541 -0.12782963 0.06276499 -0.05101657
000070 0a 03 40 3c 31 bb 8c bc ab 53 88 bd 67 1b 33 be
       0.011719475 -0.017179104 -0.066565834 -0.17490922

conv2.weight f4 [64, 32, 3, 3]
000000 c7 fc f1 3d b1 54 43 3e 6f 38 7b 3e 12 e2 02 be
       0.118157916 0.19075276 0.24533246 -0.12781551
000010 68 fe 59 bd 8d 2b 07 3e 77 c8 74 be 59 97 3d be
       -0.053221136 0.13200207 -0.23904596 -0.18514766
000020 d0 25 89 bd 76 8f 79 bd 01 5c 3f be e7 04 9d bd
       -0.06696665 -0.06092783 -0.1868744 -0.07666951
000030 ae 92 76 3c bc d8 2a 3d 87 f8 8e be 4e 21 90 bb
       0.01504962 0.0417106 -0.27923986 -0.0043985015
000040 cd be 26 bc 15 bd 04 be 32 f4 45 3e 87 63 18 3e
       -0.010177326 -0.12962754 0.19331434 0.14881717
000050 0c 86 d3 3e 02 f1 29 bc ba 9e 4e 3d b9 86 7c 3d
       0.41313207 -0.010372402 0.050444342 0.06165192
000060 c6 0e 15 be fb 45 49 bd d3 f9 25 be bc 84 c0 bd
       -0.14556417 -0.049139004 -0.16208582 -0.09400317
000070 56 99 09 be a7 bb 7f be d2 c2 68 3d 2c e8 95 3d
       -0.134374 -0.24973927 0.05682642 0.07319674
000080 04 13 99 be 60 86 e3 3d 28 40 c1 3d f3 73 93 be
       -0.2989732 0.11109614 0.09436065 -0.287994
000090 28 16 9e 3c 8e d3 34 3c ea 1b 55 bb 77 83 a8 3c
       0.019297674 0.011036767 -0.0032517859 0.0205705
0000a0 66 a6 8a 3d 88 0f e3 bd a4 f2 52 bd 36 07 01 3d
       0.06770019 -0.11086947 -0.05150093 0.031501018
0000b0 b7 ea e2 bd d9 92 5c 3c ea 40 f9 3c 29 fc a6 bd
       -0.110799246 0.013462746 0.030426461 -0.081535645
0000c0 59 73 e5 bd f4 dd 0d bd ae 7f 02 be 9f 7e 88 3d
       -0.112036414 -0.0346355 -0.12744018 0.06664776
0000d0 b3 ca 41 bd dd 41 3e bd b5 5d 5f bd 90 3c 27 3d
       -0.04731245 -0.04644953 -0.054532725 0.04082924
0000e0 a4 33 42 3e 30 33 fb bc 2c c3 87 3d 9e db a3 3e
       0.18965012 -0.030664057 0.06629023 0.32003492
0000f0 94 88 29 be f3 48 7c 3d 38 b4 95 3e c5 b3 96 bd
       -0.16556007 0.061593007 0.29239058 -0.07358507
000100 ba c3 8e bd ac 54 01 be de bf 10 3c f5 77 7e bd
       -0.06970926 -0.12629956 0.008834807 -0.06212612
000110 8f 84 14 bd a6 15 b5 3c f7 37 64 3d 13 c5 5e 3d
       -0.03625923 0.02210505 0.055717435 0.054387163
000120 6a 96 06 3e 46 f9 14 3e d1 03 2c 3d 76 dc 6c 3d
       0.13143316 0.14548215 0.041995827 0.057827435
000130 c0 1d 7b 3d f4 c7 a7 bd 5f 37 a1 3d 60 82 70 bd
       0.06130767 -0.08192435 0.07871889 -0.058718085
000140 2b d8 8a be d6 ac 24 3d 76 81 37 bb d0 1f 25 3d
       -0.27118048 0.04020389 -0.0028000749 0.040313542
000150 46 af 1f 3d cf 05 81 3d fc b4 83 3d 65 8e 9e bd
       0.038985513 0.06299936 0.064310044 -0.07742003
000160 41 44 05 bd a5 b3 14 3d 02 65 46 3d d7 3e 81 3d
       -0.032535795 0.036304135 0.048436172 0.06310814
000170 90 44 f0 bd 8d d3 f3 3d 50 fe f0 3d c8 3f ba bc
       -0.11731827 0.119055845 0.11767256 -0.022735491
000180 9a f6 99 3d 73 e4 ca 3d 5d 3b 82 be 3c 65 ad 3d
       0.07517739 0.099068545 -0.25435916 0.084665745
000190 fa 63 89 3c 42 49 af 3d 8c e1 ca 3d 95 3b 31 3d
       0.016771305 0.08558895 0.09906301 0.043269712
0001a0 22 6c c2 3d 77 ff 05 be fb b4 03 3d 09 3e 23 39
       0.09493281 -0.13085733 0.03215502 0.00015568001
0001b0 ac e3 ee bb 7d f6 b8 bd 90 84 49 be ac 91 82 3d
       -0.007290324 -0.09031389 -0.19679475 0.06375441
0001c0 e5 20 f7 3d 95 28 c8 bd 72 dc 34 3e ab 2e 0e 3e
       0.12066821 -0.097733654 0.17662218 0.1388499
0001d0 d8 37 7c 3c ef c2 42 3c c4 54 07 be 45 9f 59 be
       0.015394174 0.011887296 -0.1321593 -0.21252163
0001e0 53 4b d2 3c 56 00 5f 3d 9c 46 fb 39 67 fa b8 bd
       0.025670683 0.05444368 0.0004792706 -0.090321355
0001f0 44 09 05 ba a5 4c 97 3a 18 0c cb 3d 0d aa dd 3b
       -0.0005074928 0.0011543228 0.09914416 0.0067646564
000200 df 0d b9 bd 49 a6 cb 3d f9 43 86 3c c2 8d 8b be
       -0.09035849 0.09943826 0.016389834 -0.2725659
000210 f1 1d 5a bd 11 2d 86 bd 06 c8 ad be aa a6 f6 bc
       -0.05325121 -0.065515645 -0.33941668 -0.030108768
000220 3a ae 58 bd c9 56 d4 bd c4 47 24 be 09 44 20 3d
       -0.05290053 -0.103681155 -0.16043001 0.039127383
000230 9c f5 f0 bd e2 81 a6 3d d4 07 c0 bc 6b c5 bf 3c
       -0.11765596 0.08130242 -0.023441233 0.023409566
000240 58 76 50 3e d9 dd 1d 3e 8d 2f 9a 3e 65 29 b7 bc
       0.20357645 0.1541666 0.30114403 -0.022358606
000250 f6 f4 07 bd f0 c5 23 3e 67 bd 9a bd df 8d e9 bd
       -0.033192597 0.15993476 -0.07555657 -0.11404013
000260 be cb 4f be 0f 59 05 be 70 21 3f be 91 4a 62 be
       -0.20292565 -0.13022254 -0.18665099 -0.22098757
000270 3e 1d 08 bd ba 13 73 3d 3f 0d 1e be fa 77 eb 3d
       -0.033231013 0.059344985 -0.1543474 0.11497493
000280 77 47 49 3e 49 2c 1e 3e 7e 2b 06 be 4d be ff bd
       0.19656168 0.15446581 -0.13102528 -0.12487469
000290 d5 9c 48 bd 20 ec 03 3c 97 c2 ee bd 17 f7 fb 3d
       -0.04897769 0.008051902 -0.11658209 0.12302988
0002a0 d6 84 80 bd b8 36 f4 3c c2 d6 1f 3e 39 ad 06 bc
       -0.062753364 0.029811248 0.15609267 -0.00822001
0002b0 63 9c 7d 3d 15 52 b4 bd 32 42 fe bd 65 cb a1 3d
       0.06191672 -0.088047184 -0.124149695 0.079001226
0002c0 dd d9 ee bc 83 f4 c8 bc e3 2e 54 3d 5e 13 4c bd
       -0.02915662 -0.024530655 0.051802527 -0.049823157
0002d0 76 5d a3 bc 44 0b 3e 3d 5c a7 61 3e 55 cd 68 bd
       -0.019942027 0.046397462 0.22036499 -0.056836445
0002e0 3b c5 10 3d 63 f0 bc 3e 14 23 df bd 57 8a 80 3d
       0.035344344 0.3690215 -0.108953625 0.06276386
0002f0 d0 72 03 3e 0f fa 73 bd e8 16 d3 bc a4 84 99 bd
       0.12836766 -0.059564646 -0.025767758 -0.07496002
000300 89 21 08 bd db 1f 06 3d a2 53 b5 3d f1 5d 76 bd
       -0.033235107 0.032745223 0.08853842 -0.060148183
000310 f7 53 86 bd 9e 6c c1 3d 25 c3 a8 bd 2d 8c e9 bd
       -0.06558984 0.09444545 -0.08240346 -0.114036895
000320 68 cd 8b 3d d1 cd ad 3d f0 ba 81 3d ff ea 0e be
       0.068262875 0.08486522 0.063344836 -0.13956831
000330 d0 d0 e0 bd c6 ac 8c bd 4b b5 17 be 6f 4d 3a bc
       -0.10977328 -0.068688914 -0.14815252 -0.011371001
000340 98 4d 00 be 8b f0 a7 be 5d d0 69 bd 02 b3 17 3e
       -0.125296 -0.32800707 -0.057083476 0.1481438
000350 14 14 04 bd ef ea 15 3e be 2d 46 3e 07 2a 17 3e
       -0.03224571 0.14640401 0.19353387 0.14762126
000360 6b 23 a7 bd 05 85 11 bc 31 df 38 bc 3e c2 34 be
       -0.08161052 -0.008881812 -0.011283682 -0.17652223
000370 a2 05 9f bd 8f ba 25 bd 92 ba b6 bd 6d e7 3f 3c
       -0.07764746 -0.04046112 -0.08922304 0.011712891
000380 9c 30 2d bd eb ce c8 bd 12 e5 e2 bd 22 f8 58 bd
       -0.042282686 -0.098050915 -0.11078848 -0.052971013
000390 88 14 3d be 6a f5 c9 bd 55 0b 22 be 1b 30 1c be
       -0.18464863 -0.09861262 -0.15824635 -0.15252726
0003a0 a3 83 6c bd 4f f6 bc 3c c2 61 20 be 86 86 a9 bd
       -0.057742726 0.023066668 -0.15662292 -0.082776114
0003b0 3c 98 99 bd dd 60 54 3c e2 4c a3 bd 08 67 0c 3e
       -0.074997395 0.012962547 -0.079736486 0.13711178
0003c0 6f f6 a6 3d d3 54 c5 3d 5e be 2c 3e 75 22 1c 3c
       0.08152472 0.096353196 0.16869494 0.0095297
0003d0 2f d5 fa bc b1 ec da bd 58 6f 2c bc f3 55 65 bd
       -0.030619232 -0.106896766 -0.010524593 -0.05599017
0003e0 c7 11 a9 bd 91 88 12 3e a7 2a c0 3d 58 06 db 3d
       -0.08255344 0.14309908 0.09383135 0.10694569
0003f0 30 a6 1d be 06 e5 69 be 62 c9 69 be b6 39 24 bd
       -0.15395427 -0.22841272 -0.22830728 -0.0400941

conv2.bias f4 [64]
000000 ea e9 a5 bd 08 0f 93 3b 24 5e 09 3c 06 48 23 bd
       -0.08101256 0.004487876 0.008384261 -0.03986361
000010 02 63 ac bc 97 80 a2 bd 16 97 55 bd b1 11 a0 bd
       -0.021043304 -0.07934683 -0.05214604 -0.07815874
000020 9d 33 5c bc e5 80 8c bd 66 34 4b bd 53 64 a3 bc
       -0.01344004 -0.06860522 -0.049610518 -0.0199453
000030 1d 7b c7 3b b9 d6 2c 3d 04 8d 83 3d 4a f6 2c 3d
       0.0060876743 0.042196963 0.06423381 0.042227067
000040 b7 e0 68 bd bf 92 c9 bd 88 d0 62 bc bb 07 46 3c
       -0.05685493 -0.09842443 -0.013843663 0.012086804
000050 fc bd 00 3d b3 e2 8e bd 10 32 9f 3d ac e8 c3 bd
       0.031431183 -0.06976833 0.077732205 -0.09565863
000060 e1 36 60 bc f0 22 88 bc 93 e7 c3 bd 20 b4 bd bd
       -0.013684959 -0.016618222 -0.09565654 -0.09262872
000070 0e 14 aa 3c 91 a2 d9 bc 5c 4a e6 bb 28 6a 83 bd
       0.020761516 -0.026566776 -0.0070279073 -0.06416732
000080 a8 a7 1d 3b 66 5a b6 bd 0f 41 ac bb 6c 2e a8 bd
       0.002405623 -0.08903961 -0.005256779 -0.08211979
000090 a0 a6 02 3d bb 12 81 bc b7 7b 39 3d ff 8f 3d 3c
       0.031897187 -0.015756002 0.045284 0.011569976
0000a0 26 93 c0 bc c7 42 78 3c 29 d0 08 3c f0 0c 0b 3c
       -0.023507666 0.01515264 0.0083504105 0.008486971
0000b0 0f 30 09 bc 87 1d 63 bd d3 6b c8 3c a8 39 a2 bd
       -0.0083732745 -0.05544808 0.024465477 -0.07921153
0000c0 dd a0 88 bd 8a 87 51 3c f9 f5 89 bd 24 1e 15 bd
       -0.06671307 0.012788663 -0.06736369 -0.036405697
0000d0 5a dd c0 bc a2 6a 6a 3b a4 24 59 bc 9c 52 60 bc
       -0.023543049 0.0035769125 -0.013253365 -0.013691571
0000e0 2a 1f e7 3c 1c 31 51 b8 2e 25 38 3c 4f 57 9b ba
       0.028213102 -4.987522e-05 0.011239333 -0.0011851582
0000f0 dd 3e d1 bc ac d2 3e 3c 23 3a 0a 3d fd b9 07 bd
       -0.02554267 0.011646908 0.03374685 -0.033136357

conv3.weight f4 [128, 64, 3, 3]
000000 99 00 56 bd 31 47 a7 3c a2 6e 6e bc 36 f6 85 bd
       -0.052246664 0.020419689 -0.014552744 -0.06541102
000010 5c 51 e0 bd e5 40 c2 3d be 17 29 bd 78 3b d6 bd
       -0.10953018 0.09485034 -0.041282408 -0.104605615
000020 df 9f 9b 3d cb 1f 92 bd db b4 2b be 47 30 84 3c
       0.07598852 -0.0713497 -0.1676821 0.016136302
000030 74 f5 d7 bd 6b 2d 98 3d 94 8b e6 3d 18 cd ce bd
       -0.10544863 0.07430538 0.11257091 -0.10097712
000040 db 69 d5 bd e4 cf d8 bd 61 1b 95 3c 23 fe 0c bd
       -0.10420581 -0.10586527 0.018201532 -0.03442205
000050 ba 03 4e bc ea e8 0d 3c 8f 0b 36 bc 57 56 77 ba
       -0.012574131 0.008661488 -0.011111154 -0.0009435168
000060 95 81 da 3c 1a 07 04 bd 56 1b 51 bc 6b 19 57 bd
       0.026673118 -0.032233335 -0.012762865 -0.052514475
000070 3b a7 bb 3d 78 3a 2c bb 83 c2 ce bd ce 73 17 3d
       0.09162756 -0.0026279967 -0.10095694 0.036975674
000080 c6 a5 3c 3d 84 28 d5 bd a9 e3 a4 bd 11 e0 12 3d
       0.04605653 -0.10408118 -0.08051235 0.035858218
000090 19 43 0c be 75 e9 61 3d 6e 73 8c 3d 38 b9 cc bd
       -0.1369747 0.055154283 0.06857954 -0.09996265
0000a0 cd 06 26 bd 2d 6f b4 3d 8a ba 27 be 00 95 fe bc
       -0.04053383 0.088102676 -0.16379753 -0.031076908
0000b0 60 98 c0 bd e9 13 c6 bd bf 35 b3 bd 59 87 26 be
       -0.09404063 -0.09671766 -0.08750486 -0.16262569
0000c0 96 93 81 bd cc fb 03 be 9b 22 89 bb 63 3d bd bd
       -0.06326978 -0.12889022 -0.0041850335 -0.09240224
0000d0 fb b3 10 be b0 46 f5 bc 61 64 80 3d 39 06 83 bc
       -0.14131157 -0.029940933 0.06269146 -0.015994178
0000e0 8c 8b 56 3b 8e 1e ec 3c 8e 1a e1 bc eb de f6 bd
       0.0032736985 0.028823163 -0.027478483 -0.12054237
0000f0 4f b1 6b bc ba 83 fb 3d 66 68 57 3d ed 33 f4 bc
       -0.014385535 0.12280984 0.052589796 -0.029809916
000100 0a 53 e5 bd a9 c6 bd bc 73 37 66 bd 11 12 a9 bc
       -0.11197479 -0.023166018 -0.056205224 -0.020638498
000110 8e b9 3c 3d 63 3a c9 bd 3f 60 6c bd 24 68 ed bc
       0.046075396 -0.098255895 -0.057708975 -0.028980322
000120 ac 3f a1 bd 7b 2e d7 bd 70 80 03 be 8d 66 77 bd
       -0.078734726 -0.10506912 -0.12841964 -0.060400534
000130 a5 f3 01 3c df 1f 04 be 46 f2 b1 bc 2f 72 8a bd
       0.007931625 -0.12902783 -0.02172197 -0.0676006
000140 aa 7b 47 be 1a 0c 9b bc 29 52 30 bd f2 2a 83 3c
       -0.19480768 -0.018926669 -0.043047104 0.016011689
000150 d2 ce 01 be fd f7 7a 3c ed 13 6a 3c ba ea 8a bc
       -0.12676552 0.015317914 0.014286977 -0.01695763
000160 d7 20 b7 bd e3 f7 0d 3d e3 a0 a3 bc a6 2a 5b bd
       -0.089418106 0.03466023 -0.019974178 -0.05350747
000170 ca 5d e9 bd 4f cf 4c bc 76 96 0b 3d 5b 3e b5 b9
       -0.11394842 -0.012500598 0.034079038 -0.0003456947
000180 8c 64 a1 bc 8a 8c 49 3d 5a 90 2a 3d c7 97 93 3d
       -0.019701265 0.049206294 0.04164157 0.072066836
000190 c0 21 83 3d a1 3e f0 bc 87 28 06 3c e1 18 26 3d
       0.06402922 -0.029326739 0.008188373 0.04055107
0001a0 d2 25 8f 3d 4f e2 91 3b 5f 62 8a 3d f7 07 fa 3d
       0.069896355 0.004452027 0.06757044 0.122085504
0001b0 60 11 25 3d bc 6e 0e bc bf c0 fe bb 25 c8 8b bd
       0.040299773 -0.008693393 -0.007774442 -0.06825284
0001c0 f9 d6 14 bd 4a 9a 96 3c bb 6b d8 bd a1 eb 97 bc
       -0.036337826 0.018384118 -0.10567423 -0.018544974
0001d0 de 23 16 3e 8c 91 60 bd 54 10 8a bd 3a fb 80 bb
       0.1466212 -0.054826304 -0.067413956 -0.0039361985
0001e0 2c 86 ac bd 86 7a 2f bd 18 35 4d be 5e 21 0d be
       -0.08424029 -0.042841457 -0.20039785 -0.1378226
0001f0 5f da 22 be 6e 83 b7 bc 10 bc af 3b c6 59 69 3d
       -0.15903614 -0.022401538 0.005362995 0.05697038
000200 ec 3c 61 bd 53 bc 24 bc f1 65 66 bc 2b ef 99 bd
       -0.05498974 -0.010054666 -0.014062391 -0.07516321
000210 5b 86 65 bc c1 25 47 3d f6 ed 98 bc 49 e0 46 bd
       -0.014009084 0.04861999 -0.018668156 -0.04855374
000220 26 c4 d6 bc 73 60 09 3c cd fb 46 bd a1 45 af 3a
       -0.026216578 0.008384812 -0.04857998 0.0013372191
000230 15 4d 06 3d 6a 1c ac bc 45 da 44 bd 6d 5b ab bc
       0.032788355 -0.021009643 -0.04805972 -0.020917619
000240 92 6e 04 bc 54 68 51 bd 45 92 25 be 69 54 c4 bd
       -0.008083003 -0.051124886 -0.16169079 -0.095864125
000250 de df c4 bb f7 95 d4 bd f0 6b ae bd ec d9 89 3d
       -0.0060081324 -0.10380166 -0.08516681 0.067310184
000260 2e 9c cc bd 6b ab 6f bd 06 ac e1 3d 58 f9 b6 bd
       -0.099907264 -0.058513086 0.11019139 -0.08934277
000270 de 14 c5 bd f4 85 02 be 58 dd fe bd 47 27 a8 bd
       -0.09623121 -0.12746412 -0.12444562 -0.082106166
000280 60 26 f7 bd db e9 8e be 4a 50 6c bd 54 32 c1 bb
       -0.12067866 -0.27912793 -0.057693757 -0.005895892
000290 3c c7 4d 3d 10 db d8 bd de 09 2c 3d 57 cb 17 3d
       0.050238833 -0.10588658 0.042001598 0.037059154
0002a0 b8 a8 8c bd a3 b7 05 bd db 74 a3 bd 6d 9a 36 3d
       -0.06868118 -0.032645833 -0.07981273 0.044580866
0002b0 b0 fe 2e be 7a 24 e2 bd 81 c4 89 bd a1 9a 16 bd
       -0.17089343 -0.110421136 -0.06726933 -0.03676856
0002c0 49 0d bc bd 50 13 8b bd 88 28 ad bd 30 8c 09 3e
       -0.091822214 -0.06790793 -0.08454996 0.13432384
0002d0 73 42 cd 3c 20 5c 05 3d 62 a2 ac 3d 01 5d 0e be
       0.0250561 0.03255856 0.084294096 -0.13902666
0002e0 69 14 a0 bc c3 7c 89 3c 28 b5 db bd 3f 69 0a be
       -0.019540982 0.016783124 -0.10727912 -0.1351671
0002f0 72 0a 0b 3e f6 b7 cf 38 de 81 09 bd ed 59 26 3c
       0.13578203 9.9047946e-05 -0.033571117 0.010153276
000300 a7 9d 8b 3c 3b 44 15 3d 09 e4 96 39 79 6c 2c bd
       0.017042948 0.036442023 0.0002878013 -0.042095635
000310 45 2e 0e 3d e3 6a 44 3c 7e 7c e4 3c 27 11 31 bd
       0.034712095 0.011988374 0.027891394 -0.04322925
000320 04 03 f7 bc 0a a0 02 bd 47 69 b8 bc 09 32 2b be
       -0.030152805 -0.031890906 -0.022511138 -0.16718306
000330 39 2b 34 bd 90 9d 10 3b 38 6e 00 3e 7c 84 e6 3c
       -0.043986533 0.002206657 0.12542045 0.028139345
000340 aa 4d 18 be c2 5e 73 bd 28 1b dd bd c6 63 43 bd
       -0.14873376 -0.05941654 -0.10796195 -0.047702573
000350 cb bd e9 3c 55 09 04 bd 7f 00 50 bd dc bc 8c bd
       0.028532883 -0.032235462 -0.050781723 -0.068719596
000360 da 8d 9b bc cc 12 38 bc 85 3b 90 bd c8 b9 9d bd
       -0.018988539 -0.01123495 -0.070426024 -0.077014506
000370 05 aa d1 bb 47 9d e6 bc 1f 41 07 3c 02 74 ad 3d
       -0.0063984417 -0.028151168 0.008255272 0.08469392
000380 fd bd 6f be 12 ec 8c 3c fd e4 9e 3c fb f1 97 3d
       -0.23412319 0.01720241 0.0193963 0.07419201
000390 43 3a 70 bd a0 60 a6 bd 16 2e 0c 3d 3c 08 e8 bd
       -0.058649313 -0.081238985 0.03422364 -0.113296956
0003a0 41 92 08 be 3d b8 96 bc dd 9f 2b bd 78 da bd bd
       -0.13337041 -0.018398399 -0.041900504 -0.09270185
0003b0 bf 94 e2 bd a4 9a 20 bd 5d 1a 14 bd 01 c7 18 be
       -0.11063527 -0.039209977 -0.036157954 -0.14919664
0003c0 cb be de bd f8 78 e9 bd d3 4d 46 be 1f 21 a1 3d
       -0.108762346 -0.11400026 -0.19365625 0.078676455
0003d0 33 33 a1 bc e6 99 ed bd 48 60 12 be c3 18 bb bd
       -0.019677734 -0.116016194 -0.14294541 -0.09135582
0003e0 8b 8c d2 bd 73 57 2c bd 8e 33 99 3d b2 3f c2 3d
       -0.10280713 -0.042075586 0.074805364 0.09484805
0003f0 d6 c7 ab bc 9c 46 25 3c 08 7b cc 3d 97 b8 0e bd
       -0.020969313 0.010087635 0.09984404 -0.034844007

conv3.bias f4 [128]
000000 82 77 37 3c c3 0f 88 3c cf 0e 52 3c 0f 19 a3 bd
       0.0111979265 0.016609078 0.012820913 -0.07963764
000010 74 88 01 bd 29 c6 e6 bc be 15 c5 3b b5 79 17 bd
       -0.031624272 -0.028170662 0.0060145548 -0.036981303
000020 a8 97 eb 3c d8 e8 94 3c 5f 44 86 bd de 68 40 bc
       0.028758839 0.018177435 -0.065560095 -0.011743752
000030 02 52 a0 3c 51 8d 74 3b 23 60 01 bb 8d d0 51 bc
       0.019570354 0.0037315676 -0.001974114 -0.01280607
000040 bf 64 84 3a 3d 05 b4 3b 50 f2 06 bd f3 9c 22 bc
       0.0010100825 0.0054937885 -0.03294593 -0.009925115
000050 d6 b8 01 ba ce 44 c8 bd 0d 84 8e 3c 72 f5 32 bd
       -0.0004948502 -0.097787485 0.017396951 -0.043691106
000060 df 81 a9 bc 8a d7 6e bd af 4b 9a bd b3 cd 63 bd
       -0.02069181 -0.058311023 -0.07533967 -0.055616092
000070 e6 a6 be bc 91 06 06 3d e4 d2 46 3c b2 0e 62 3c
       -0.023272943 0.032721106 0.012135241 0.013797449
000080 0c dc bf 3c 1d fb aa bc 96 55 f7 3c 91 6d 96 3b
       0.023420356 -0.020871693 0.030192178 0.004590698
000090 24 c2 86 bb 56 cf 61 bd 79 54 d2 bb d4 42 41 bd
       -0.004112499 -0.05512937 -0.0064187613 -0.047182873
0000a0 72 45 d2 3b 31 7a f8 3b 09 7a 6a bd 41 56 a8 3b
       0.00641697 0.0075829257 -0.057245288 0.0051372354
0000b0 4a cb bc 3c b0 92 85 bd 82 8b 22 bd 65 e2 ce bb
       0.023046155 -0.06522119 -0.039683826 -0.0063136094
0000c0 e4 b5 f5 bc 0d 2f 3e bd d0 e9 89 bd dd d9 85 bc
       -0.029993959 -0.04643159 -0.06734049 -0.016339237
0000d0 0f 64 39 bd 5a e9 8b 3a c1 c5 4e 3b fc 90 83 bc
       -0.04526144 0.0010674403 0.0031550976 -0.016060345
0000e0 e7 45 ef ba be b6 09 bd d0 d2 8a 3b 45 a3 37 3d
       -0.0018255085 -0.033621542 0.0042365566 0.04483344
0000f0 ea 35 87 bd 55 f2 29 bd 76 d2 05 3d a0 7d 35 bc
       -0.0660208 -0.04149087 0.032671414 -0.011077315
000100 49 5c 2c bd 66 52 90 3d f4 8b 6b 3c 23 88 e0 3b
       -0.042080197 0.07046966 0.014376629 0.0068521663
000110 7a c5 9c bc 2b b5 99 bd 0b b2 32 bd 6b ad b0 bc
       -0.019137133 -0.07505258 -0.043626826 -0.021567067
000120 47 29 8d bd a7 bd 1a bd e1 7b 14 bc e9 06 29 bc
       -0.06892639 -0.037778523 -0.009062738 -0.010316589
000130 22 f9 5d bd 2b a8 d0 bd b9 4d 1a bd 2a f9 db bc
       -0.05419267 -0.101883255 -0.03767178 -0.02685221
000140 58 3e 0b bd 90 1f b2 bc a5 75 8d bd 6f ab 70 bd
       -0.033995003 -0.021743566 -0.069072045 -0.05875724
000150 b5 c4 9b bd 3d 78 b8 bc 19 dc a5 3b 61 e3 e1 bc
       -0.07605878 -0.022518272 0.005061638 -0.027574243
000160 24 f2 96 bd 92 b4 3c 3c 6e 86 ff bc e0 b6 37 bd
       -0.073704034 0.011517661 -0.03119203 -0.044852138
000170 ea 63 9a 3c 39 3c 38 bd 39 60 26 3c 59 33 d5 bc
       0.01884647 -0.044979308 0.010154777 -0.026025461
000180 d7 cd bf bb 1a be eb 3c cc fe 06 3d e4 86 1d bc
       -0.0058533954 0.02877717 0.032957837 -0.00961468
000190 34 a9 05 bd 5b 84 9e bd 06 8e 46 bc 21 68 39 bc
       -0.032632068 -0.077400886 -0.012118822 -0.01131633
0001a0 be 79 40 3c 69 77 89 bc 0f 58 3d bd ec 5f 68 bd
       0.011747776 -0.016780572 -0.046226557 -0.056732103
0001b0 ed f1 b5 bc 7b dc a7 3c 92 69 ed bc 30 7d ec 3b
       -0.022210086 0.020490875 -0.028981004 0.007217072
0001c0 39 7e 08 bc b3 fc 53 bd d1 67 1f bd c5 1b 1e bc
       -0.008330875 -0.051754665 -0.038917366 -0.009650175
0001d0 7e b5 67 bd 6d 13 fd bc 91 2d d5 bd 89 d4 af bc
       -0.05656957 -0.030893052 -0.10409082 -0.02146365
0001e0 06 ad 37 bc b6 08 81 bb bc d9 6e bc d3 b9 0c bd
       -0.011210686 -0.003937806 -0.014578279 -0.034356903
0001f0 ea 72 88 3c 20 51 b2 bc 4e da 46 3d d9 de c3 bd
       0.016656358 -0.021767199 0.048548035 -0.09563989

fc1.weight f4 [10, 128]
000000 0e 70 38 3d 45 07 4e 3d 75 a1 30 be d9 a9 14 be
       0.04502874 0.0502999 -0.17249091 -0.14517917
000010 79 24 90 3d aa 85 cc 3d 57 db 85 bd d1 64 8b 3c
       0.070382066 0.09986432 -0.065359764 0.017015846
000020 87 b4 d5 3c c0 0a ca 3b 0a a4 37 be 1d 99 6e bd
       0.026087059 0.0061658323 -0.1793367 -0.05825149
000030 3a c0 ff bd 3f 2c 62 bc e5 99 db 3d 8a 7e 61 bd
       -0.12487836 -0.013804494 0.107227124 -0.055052318
000040 5c 91 c3 bd 75 d8 1b bc 18 65 13 bd f8 26 bf bd
       -0.095492095 -0.009512057 -0.035985082 -0.093336046
000050 c6 80 1e be 37 fa a9 bd eb ee 8d 3d 17 44 ff bc
       -0.1547881 -0.08299678 0.069303356 -0.031160397
000060 5a f5 a9 bd 8d 97 72 be 4a c6 25 be 9f fa 2a be
       -0.0829875 -0.23690625 -0.16188923 -0.16697167
000070 98 2e 74 be ee 5c dd 3d 59 5a 6a bd 73 30 dc 3d
       -0.23845899 0.108087406 -0.05721507 0.107514285
000080 73 66 e5 3d 46 04 bc 3d 16 bb e9 3d 7b 7a b5 3d
       0.11201181 0.091805026 0.11412637 0.08861252
000090 5e 9f 8d 3d c8 8e 31 bd 62 3b a4 3c 95 64 41 3c
       0.069151625 -0.043349057 0.020047847 0.011803766
0000a0 5b 4c 32 bd b1 80 29 be 59 74 e0 bd 6e 7c 4b 3c
       -0.04352985 -0.16552998 -0.109596916 0.012419803
0000b0 17 75 24 be 65 21 e8 3d 05 b5 8f bd 57 90 89 3c
       -0.16060291 0.113344945 -0.070169486 0.01679246
0000c0 b3 76 8a 3d d3 95 ed bc f2 10 12 be b9 5d 5b 3c
       0.06760921 -0.029002106 -0.14264277 0.013389044
0000d0 64 d9 19 be 27 2a 9d bd 95 c7 07 bd 59 cf df 3d
       -0.15024334 -0.076740555 -0.03314932 0.1092822
0000e0 b8 23 bb 3c 16 1e 58 bd 1c 9d f8 bb 1f 36 cf 3d
       0.02284418 -0.052763067 -0.0075870883 0.10117745
0000f0 67 19 82 be 2e 7f 18 be f9 38 db 3d 23 a9 a9 bd
       -0.25410005 -0.14892265 0.10704226 -0.082842134
000100 78 ca d8 3d 0f 73 93 be 81 1f a3 bc f3 e4 e6 3d
       0.10585493 -0.2879872 -0.019912483 0.11274137
000110 9e 94 58 3d fd 11 46 3c f2 de 72 3c 90 4b 59 3d
       0.052876107 0.01208925 0.014823662 0.053050578
000120 07 a3 b6 bd 63 37 11 bd 83 b6 83 bd b5 c4 46 be
       -0.08917814 -0.03545321 -0.06431296 -0.19410975
000130 36 eb 8a be 4c a7 d0 3c 00 3c 8c bd 56 57 d9 3c
       -0.27132577 0.025470398 -0.068473816 0.026530903
000140 33 e7 9e 3d b0 e1 39 be 19 bd 61 bc d2 ba 8d bd
       0.077589415 -0.18152499 -0.013777995 -0.06920399
000150 f1 f4 e3 bd 6a b6 01 3e b2 f3 79 3d 14 2c 6c 3d
       -0.11130703 0.12667242 0.06102342 0.057659224
000160 a8 b3 91 3b f7 f6 9d 3d be 1e 0b 3e 9f 57 48 be
       0.0044464655 0.077131204 0.13585946 -0.19564675
000170 a9 60 73 3d 2f 4f 50 3d 2c 4d 19 3d df 36 d2 3c
       0.059418354 0.050856765 0.037427112 0.02566093
000180 7f 85 5c be ef a3 fb 3c ff 80 61 be a0 48 d6 bd
       -0.215353 0.030717818 -0.22021864 -0.10463071
000190 49 e2 cc 3d c4 b2 a1 bd a6 a7 8c bd 23 0c 5c be
       0.10004098 -0.07895425 -0.06867914 -0.21489005
0001a0 e2 ae b3 3d 3f 67 91 3c c9 e9 8b 3d 33 ce 11 3d
       0.087735906 0.017749427 0.068317 0.035597038
0001b0 d5 b1 18 be 9f d0 b1 3d f7 0b c7 bd 8d 30 84 be
       -0.14911588 0.086823694 -0.09719079 -0.2581829
0001c0 f5 40 3c bd b9 e4 56 3b 0f 30 27 be 02 ef 9d bd
       -0.045960385 0.0032790138 -0.16326927 -0.07711603
0001d0 86 da 82 be 3d d6 6f be 1d 46 18 3e ba 9f 1d 3e
       -0.25557345 -0.23421569 0.14870496 0.15392962
0001e0 de 5a ae 3d 21 b8 e5 bd f5 9d ed 3d 94 ef 8f 3d
       0.08513425 -0.112167604 0.116023935 0.07028118
0001f0 2d 7f 81 3d fb 4e 88 bd 71 a5 c9 bd 14 ca 59 3c
       0.06323085 -0.06655689 -0.098460086 0.013292808
000200 8e 48 27 3e 8c dc 6b bc c2 ed fb 3d 49 2e e1 bd
       0.16336271 -0.014395844 0.12301208 -0.10995156
000210 9a 94 04 3e 61 ca 80 be 1c ab 1a bd 56 09 10 3c
       0.12947312 -0.25154403 -0.03776084 0.008791288
000220 11 c0 39 bd 20 ca e6 3c 96 55 24 be 3a a2 92 be
       -0.045349184 0.028172553 -0.16048273 -0.28639394
000230 e9 e3 b5 3d 31 47 de 3d 31 a8 b6 3d 52 98 b2 be
       0.08881361 0.108534224 0.08918799 -0.34881836
000240 32 98 10 3d 69 fa 48 bd e7 e5 80 be 02 2d cb bd
       0.035301395 -0.049066935 -0.25175402 -0.09920694
000250 7a e5 a8 bd 28 bb fd bc 7f bd 22 3e 84 80 7d bd
       -0.08246894 -0.030973032 0.158926 -0.06189014
000260 2f 70 7c 3d 41 10 f6 bd 21 28 11 be 7d a2 d5 bd
       0.061630424 -0.12014819 -0.14175464 -0.10431383
000270 cf 2d ab 3d 1e b0 6d be 33 b2 b4 3d f2 ae 85 be
       0.08358347 -0.23211715 0.08823051 -0.26110035
000280 9d 41 6f bd 4d f7 1b 3e 25 d0 5d be 32 65 36 bd
       -0.058412183 0.15231057 -0.21661432 -0.0445301
000290 b3 96 d9 3d 22 ca 06 3e fc 60 af 3d f5 3c ab bc
       0.10624447 0.13163045 0.0856342 -0.02090309
0002a0 9a 35 95 bc ec d3 22 3d eb b5 30 bd d3 d6 e5 bc
       -0.018214036 0.039752886 -0.04314224 -0.028056538
0002b0 73 bf ba 3b ee 43 50 3c 14 e8 9d 3d d3 87 89 bd
       0.005699092 0.012711508 0.07710281 -0.067153595
0002c0 84 bb 86 3d 06 56 d2 bc c6 c1 8c be 7e 66 b7 3d
       0.065787345 -0.025675785 -0.27491587 0.08955096
0002d0 c8 c5 4d 3d 74 df 9e be 10 e6 f5 bd 79 82 3e 3e
       0.050237447 -0.31029856 -0.120067716 0.18604459
0002e0 5c 4d b0 3d 19 3a 5b be 46 f4 2e bd 0d 75 c7 3d
       0.08608505 -0.21408881 -0.042713426 0.097391225
0002f0 21 e5 b3 3d 71 1a e2 3d d2 06 b0 be 91 1b d8 bb
       0.08783937 0.110401995 -0.34380203 -0.006595083
000300 7a 35 e9 bd c0 fb ee 3d df 80 83 38 a0 c0 50 be
       -0.11387153 0.11669111 6.270571e-05 -0.2038598
000310 2d e6 8f bd bf 5a ea bc 68 17 24 3d 06 af 06 3e
       -0.070263244 -0.028607724 0.040061384 0.13152704
000320 1d b4 c6 bd 0c 3a 6a 3d 99 9e 06 3b 5d f4 d8 bb
       -0.09702323 0.057184264 0.002054131 -0.0066209272
000330 7e 04 fb bd 78 b6 dc bd bf 2b 91 bd 9f 1c 2b be
       -0.12256716 -0.10776991 -0.07088422 -0.16710137
000340 58 42 1f bc e0 ff 9e 3d 09 d8 c0 bd 60 ab 6a be
       -0.009720407 0.07763648 -0.094162054 -0.22916937
000350 19 63 93 bd 05 35 9f be db 88 8b bb 90 74 91 be
       -0.07196636 -0.31095138 -0.004258258 -0.28409243
000360 1f 44 97 3d 37 19 83 3d 66 ff 69 be 23 17 14 be
       0.0738604 0.06401294 -0.22851333 -0.14461951
000370 f3 7d be 3d 27 db 7e 3d 09 31 3e 3c db 33 ed bd
       0.09301367 0.06222072 0.011608371 -0.11582156
000380 73 0a f0 3d 42 33 50 bd 19 f0 47 bd e1 4c 11 3e
       0.11720743 -0.050830133 -0.04881296 0.14189483
000390 83 18 2a 3d cd 49 17 3d 94 a7 7e be fc 15 ab bd
       0.041527282 0.036935616 -0.24868613 -0.083538026
0003a0 64 7a 2c be fe 99 a8 3d a0 43 d8 3c da 2d b2 be
       -0.16843563 0.08232497 0.026399434 -0.34800607
0003b0 21 22 81 be e2 aa ea 3d 03 99 a8 be d4 4f 03 3e
       -0.2522135 0.114583746 -0.3292924 0.12823421
0003c0 3f 3b 8a bc 85 c1 06 be 19 74 40 be 41 01 34 bd
       -0.016873954 -0.1315976 -0.18794288 -0.04394651
0003d0 47 99 ec bd f1 58 e4 3d 2a b3 76 bd fe aa 1d be
       -0.11552673 0.11149777 -0.060229458 -0.1539726
0003e0 8c 1a 0c 3e 6f 3a 38 3d 46 14 ad bd 25 4b 68 bd
       0.13682002 0.0449776 -0.084511325 -0.05671229
0003f0 8f bb 45 bd 22 8f ed bd fb ba 1e 3e dc 25 c5 3d
       -0.048274573 -0.11599566 0.15501015 0.09626362

fc1.bias f4 [10]
000000 f8 e3 17 3e cd 50 a9 3d ba d3 3a be 8c 09 4e 3d
       0.14833057 0.08267365 -0.1824483 0.050302073
000010 72 cb fb 3d 1a 90 1c be 52 9f ac bc 7c d7 0d 3e
       0.122946635 -0.15289345 -0.021072064 0.13851732
000020 06 be 9b 3c 68 34 5f be
       0.019011509 -0.21797335
