models/model.pth (torch, 378536 bytes, 8 tensors)

conv1.weight f4 [32, 1, 3, 3]
000000 12 3e bb 3d b0 d2 6b be bd e6 53 be c5 87 d0 3e
       0.09142698 -0.2302959 -0.20693488 0.40728584
000010 f7 fc 76 3e 65 0f 0e bf 95 c8 ca 3e 38 06 b2 3e
       0.24119936 -0.5549224 0.39606157 0.3477037
000020 36 b2 cf be ce a6 7b 3e 08 a0 91 3e b1 4c 39 3e
       -0.40565652 0.2457535 0.28442407 0.18095662
000030 48 ca d5 3e e8 1b d7 bd e5 a8 73 be 5c 78 8c 3e
       0.4175589 -0.105033696 -0.23794897 0.27435577
000040 13 25 8b 3c 23 69 74 be 8e f6 75 3d 3b a7 ea be
       0.016985452 -0.23868231 0.060049586 -0.45830712
000050 6e b5 2e bf 50 8a 04 3e e5 b5 cf 3e d4 61 4d be
       -0.6824559 0.12943387 0.40568462 -0.2005685
000060 b5 41 5d 3e 41 d9 75 3e c4 3b ac 3e 37 29 7f 3e
       0.21607096 0.24008657 0.33639348 0.24918066
000070 ce 05 80 3e c4 fa 7e 3d d6 26 90 3e af 68 5c be
       0.2500443 0.062250867 0.2815463 -0.21524309
000080 8c c5 af 3e bf 5b a9 bc 4d ed 79 3e a0 c4 8f 3e
       0.34330404 -0.02067363 0.2440693 0.280797
000090 1a ce b6 bd 90 61 21 3e 81 77 b6 be fd 0a 49 3e
       -0.089260295 0.15759873 -0.3563805 0.19633098
0000a0 3f 8a 5f be 08 b0 c9 b9 6b 0b cd 3e a5 8d 0d be
       -0.2183008 -0.0003846886 0.40047774 -0.13823564
0000b0 3c 60 e6 be 0f 1f b6 be 50 04 91 be a2 66 1b 3c
       -0.44995296 -0.3557057 -0.28323603 0.009484919
0000c0 01 78 56 3d 51 1e 8f be 50 a9 ee be 74 f8 10 be
       0.05236054 -0.27952817 -0.4661355 -0.14157277
0000d0 a0 40 b2 bd f8 bb e1 3c 01 32 eb 3c f7 ec 74 3e
       -0.087037325 0.02755545 0.028710367 0.2391852
0000e0 9f ff 6c 3e 5a 25 21 3e 9d bd b1 3b 05 a3 ad be
       0.23144387 0.15736905 0.005424215 -0.33913437
0000f0 70 63 43 be 9d b5 75 3e 29 21 a7 3d 91 04 64 be
       -0.19080901 0.23995061 0.08160622 -0.22267367
000100 f3 14 95 be 83 39 08 3e 34 3b 1b be f5 0f 17 be
       -0.29117545 0.13303189 -0.15159303 -0.14752181
000110 e9 92 92 be 87 cd 9f 3d cd 18 82 be 55 4d 57 be
       -0.2862771 0.07802873 -0.25409546 -0.21025594
000120 74 ed b5 3e 80 e3 9a 3e 99 d4 48 3d 57 14 a8 3e
       0.35532725 0.30251694 0.049030874 0.32828018
000130 d5 9c 49 be 34 85 b6 be f2 88 ad bd 8d 8d 16 bf
       -0.19688733 -0.356485 -0.08473386 -0.5880974
000140 cd 11 b7 3c 04 79 0f 3e b9 ee 96 be 20 81 c8 3e
       0.022347355 0.14011008 -0.29479006 0.39161015
000150 02 0a b2 be 0e 21 6b 3d 21 66 40 3d ca 03 7f be
       -0.3477326 0.05740457 0.046972398 -0.24903789
000160 5f 43 60 3e 5e 41 3e 3c c3 ba 18 bd ac ce 87 be
       0.219007 0.011612264 -0.037287485 -0.26524866
000170 3b 12 93 bd b1 0d 01 bf 87 0a 24 3e b5 df 3d 3e
       -0.071812116 -0.50411516 0.16019641 0.18542369
000180 d2 d9 2f be e9 fd b7 3e 55 6d c2 3e d8 8c 2c 3e
       -0.17172936 0.35935906 0.3797404 0.16850603
000190 66 dc 94 3e a0 35 81 be c6 f5 5e 3d 53 3c a9 3d
       0.290744 -0.25236225 0.054433607 0.08263459
0001a0 0c 75 d3 bd d4 d6 8e be de 3f 39 3e 6d 4b c4 3e
       -0.10325059 -0.27898276 0.1809077 0.38338795
0001b0 9f de a2 3e 68 ff d8 bd 49 d4 92 be 25 87 ad 3e
       0.3181047 -0.1059559 -0.28677586 0.3389217
0001c0 fc 7e 38 be f5 1f a2 be a9 df 01 bf 3c c6 cc be
       -0.1801719 -0.31665006 -0.50731903 -0.3999499
0001d0 46 30 a5 be c7 2d 54 3e 1b f6 54 3d 2d fe 0e bf
       -0.32263392 0.20720588 0.051992517 -0.5585659
0001e0 4d d5 8d 3e 64 9b f9 3d 32 90 ed be a3 a1 ce 3e
       0.27701798 0.121878415 -0.46399075 0.40357694
0001f0 bf f2 e3 3e 6e e6 31 3e 7b c7 95 3e 70 23 8e be
       0.44521138 0.17373058 0.29253754 -0.27761412
000200 44 87 78 be e1 d5 5f 3e b8 d5 8c be 92 0d 2d be
       -0.2427035 0.21858932 -0.27506804 -0.16899708
000210 cc c9 a3 3e 6e 2e d3 be 06 ed 4f be 95 30 8e 3d
       0.31989896 -0.4124636 -0.20305261 0.0694286
000220 d4 0b a9 bc 22 f3 87 be 21 09 de be 42 71 3b be
       -0.020635523 -0.26552683 -0.4336634 -0.18304923
000230 5c 88 85 be d5 a8 75 3d 22 85 33 be e9 9e b8 be
       -0.26080596 0.059975464 -0.17531255 -0.3605874
000240 a0 6c c4 be f2 98 b3 be b6 a5 e8 3e 67 a1 2f be
       -0.38364124 -0.35077626 0.45438927 -0.17151414
000250 98 24 b9 be 12 45 cf be f2 6a 0b be 07 3b cd be
       -0.3616073 -0.40482384 -0.13615015 -0.40084097
000260 f1 00 02 bf f7 d7 1d 3e 33 6c 05 bd f7 b9 63 3e
       -0.50782686 0.15414415 -0.03257389 0.22238909
000270 07 46 76 3e 11 c3 7c 3e d1 a8 e5 3d 3a c5 d3 3d
       0.24050151 0.24683787 0.1121384 0.10340352
000280 fa e0 a1 3c 6a 39 56 be c6 2f 5a be a8 3d d0 be
       0.019760597 -0.20920339 -0.21307287 -0.4067204
000290 64 bd ca 3d eb 88 f0 3d 9a f5 34 be 14 b3 be be
       0.09899405 0.11744865 -0.17671815 -0.37246
0002a0 e0 d3 83 3e c4 0a bc 3e 6f 78 ea 3d 42 83 62 bd
       0.25747585 0.36726964 0.11448752 -0.05530096
0002b0 f2 6e 95 3d 62 90 16 bd d5 3a 9c be 66 5d e8 3c
       0.07296552 -0.036758788 -0.30513635 0.028364848
0002c0 a3 e2 ea 3e 03 d3 30 be 13 cd 15 be 9b 15 bc 3e
       0.45876035 -0.17267995 -0.14629011 0.36735234
0002d0 52 7b 3b 3e 2a aa 9d be 71 9f 39 be 17 d1 21 bf
       0.18308762 -0.30793887 -0.18127228 -0.6320967
0002e0 11 4f e4 be 6e a9 13 bd 57 26 6a bd 92 57 17 3f
       -0.44591573 -0.036050253 -0.05716547 0.59117997
0002f0 a1 37 87 3e 35 56 70 be 96 d2 90 3e a7 c2 ae 3d
       0.2640963 -0.23470385 0.28285664 0.08533221
000300 11 ef 1d 3e 02 4d 2c 3e a1 e1 a8 3e 16 6b a1 bc
       0.15423228 0.16826251 0.3298464 -0.019704383
000310 00 83 ac be 94 dc 07 be 0d d3 b7 be 20 9a 78 be
       -0.33693695 -0.13267738 -0.35903206 -0.24277544
000320 a8 20 bb be 7e 25 3f be 51 6c 87 bd 96 24 db be
       -0.36548352 -0.18666646 -0.066124566 -0.4280135
000330 34 3e ba be 9b 8e 23 be f9 73 b5 3e 3b b6 76 3e
       -0.36375582 -0.15972368 0.35440043 0.24092953
000340 e0 99 87 3e 90 78 5e 3e 74 82 28 bd 7c 0c a2 bd
       0.26484585 0.21725678 -0.041140035 -0.079125375
000350 67 61 28 bd 20 2d 96 3e 46 7d 9a 3e 8e c0 dc 3e
       -0.041108515 0.29331303 0.301737 0.43115658
000360 13 a1 bb 3e cc 7d dd 3e 9d 98 77 3e 00 64 b9 be
       0.36646327 0.43260038 0.24179311 -0.36209106
000370 ba 27 42 3e bd 56 7a 3e 88 96 0a bf 50 c6 c8 be
       0.18960467 0.2444715 -0.5413594 -0.392138
000380 6b a1 d2 be 5a 8e a0 3e 23 89 3d be 95 ed 97 3e
       -0.41138777 0.31358606 -0.18509345 0.29673448
000390 dd c3 c1 3e cc 22 64 3d b2 6f 2c be 2b 77 ab 3d
       0.37844744 0.055697247 -0.16839483 0.08372339
0003a0 70 33 70 bb fc 4e 1e bf 34 0e dc 3d e8 cf 3d 3e
       -0.0036651753 -0.6183927 0.107448965 0.18536341
0003b0 54 9a c3 3d ae 17 6e 3c ff e1 b4 3e 50 60 c5 3e
       0.0955092 0.014532013 0.3532867 0.38550043
0003c0 1b 54 f9 3d 21 ff a0 3c b4 64 43 3e 17 bc a6 3e
       0.12174245 0.019652905 0.19081384 0.32565376
0003d0 04 bd e3 3e 87 9d c6 3d 0f ab d6 3e 90 0e 8f b8
       0.44480145 0.09698015 0.41927382 -6.821484e-05
0003e0 24 4d 9f be 0d 80 a2 be 06 a7 f0 be f7 33 d0 be
       -0.3111354 -0.3173832 -0.4700243 -0.40664646
0003f0 88 15 1d 3d 8e de c2 3d d3 dc 57 be 91 ad 5b 3e
       0.038350612 0.09515105 -0.21080332 0.21452929

conv1.bias f4 [32]
000000 9d c4 ff 3d 87 16 3f be 95 fa af 3c 8b 21 39 3e
       0.12488673 -0.18660937 0.021481792 0.18079202
000010 b5 ec 84 3e 1c 44 8b 3e 31 dd 65 3e cf 0e ba 3e
       0.25961843 0.272004 0.22447659 0.36339423
000020 3c e7 6b bd 00 16 12 bc 2d 79 2e 3d 1a 9f 95 be
       -0.05759357 -0.008916378 0.04259603 -0.29222947
000030 f9 a5 ee bd 74 a1 3c be 1a c2 0c 3e e4 54 70 3d
       -0.116527505 -0.18420964 0.13745919 0.058674708
000040 73 c7 ca 3e 42 6c 20 3e ec d8 3e 3e 13 22 6c 3d
       0.39605293 0.15666297 0.18637437 0.057649683
000050 7c a9 59 be 7e 72 57 be db a0 7d 3e b0 c7 88 be
       -0.2125606 -0.21039769 0.24768393 -0.2671485
000060 81 8e 0a be 12 b7 b3 3d 50 9e 7c 3e da ff 30 3e
       -0.13530923 0.08775152 0.24669766 0.172851
000070 8f 7e 97 3e f8 93 b4 3c d6 36 3b bb d1 9f 44 3e
       0.29588744 0.022043213 -0.002856662 0.1920159

conv2.weight f4 [64, 32, 3, 3]
000000 51 3f 6f 3c 92 2a bc 3c 7b 2a 4e 3a 4d 79 00 ba
       0.014602498 0.022969518 0.00078646065 -0.0004900888
000010 60 ee 98 bc fc ca 99 bc c2 21 8b bd 42 8d 19 bc
       -0.018668354 -0.018773548 -0.06793548 -0.009372057
000020 ad f1 41 bd 34 ef 16 bd b4 05 fa bc 04 92 fe bc
       -0.04734962 -0.036849216 -0.030520298 -0.031075485
000030 2e b6 3a bd 35 24 de bc 09 fa 30 bd 3e 2d 16 3d
       -0.045583896 -0.027116874 -0.043207202 0.03666424
000040 71 f2 24 bc 94 f8 81 bd b7 3b 5b bd 49 0c 29 bd
       -0.010067568 -0.06346241 -0.053523745 -0.04127148
000050 10 92 1f 3d 97 3c fb bb 32 a6 14 3b 08 7e 3d 3d
       0.038957655 -0.007667135 0.0022682068 0.04626277
000060 da cb 37 3c b1 46 6e bc 96 5a 7a bd e0 61 20 bd
       0.011218036 -0.014543221 -0.061121546 -0.03915584
000070 13 0b 2d 3c 25 74 94 bd aa 59 42 bd 9c 00 fb 3b
       0.010561722 -0.07248715 -0.04744879 0.0076599848
000080 fd 90 be bc 35 54 29 3d c5 d8 9b 3c be 57 db 3c
       -0.023262495 0.04134007 0.019024262 0.026775237
000090 f5 86 88 3c 39 28 c9 3a af 90 1f 3d 61 d5 7e bd
       0.016665915 0.001534707 0.03895634 -0.062215213
0000a0 b4 fc d1 bc 2b 71 9f 3b 7e e6 8e bb 98 cd 1f 3c
       -0.025633194 0.0048657856 -0.004360973 0.009753607
0000b0 8c 41 24 3d 5a 6e a8 bc 5c 2a 46 bd 51 96 8c bd
       0.040101573 -0.020560432 -0.04838024 -0.06864608
0000c0 95 f9 2a 3c 18 02 88 bc f3 b2 5a bd b7 ae 19 3b
       0.010435482 -0.01660256 -0.053393316 0.0023450085
0000d0 f3 b8 8a 3c ee 79 ef 3b 4b f0 44 ba 66 56 07 3d
       0.016933894 0.0073082363 -0.0007512613 0.03304138
0000e0 f6 63 5e bd 07 26 8b bd 34 73 11 bd b8 19 1d 3c
       -0.05429455 -0.067943625 -0.035510257 0.009588651
0000f0 06 14 1c bd ea 8d f0 3c 01 8f 4e bc e4 c8 a3 bc
       -0.038105033 0.029364545 -0.012607337 -0.019993253
000100 4b fa a1 bd 1a a8 c5 bc 7f bb 63 3c 68 15 6d bd
       -0.07909068 -0.024128009 0.013899683 -0.057881743
000110 7b 43 83 bd 50 14 02 bd 85 f4 00 bd 14 83 44 bd
       -0.06409355 -0.031757653 -0.031483192 -0.04797657
000120 52 2d 31 3d 24 c7 d7 bc 64 9b b7 3c 18 4d bc bc
       0.04325611 -0.026340075 0.022412963 -0.02298598
000130 80 7f fa bc ff 5d 76 bc 08 18 e4 3c d6 c3 b7 3c
       -0.030578375 -0.015037059 0.02784349 0.022432249
000140 60 fc 5a 3d 9d 0b 77 bc d4 25 d8 39 12 0b 78 bd
       0.05346334 -0.015078452 0.00041226915 -0.060557432
000150 ee b4 9e 3c ff 9f a5 bc 2f 41 b7 3c 58 2f 17 bd
       0.019373383 -0.020217894 0.02236995 -0.036910385
000160 17 36 38 3c f1 74 81 3b 1a 99 4c bd c5 4f 39 bc
       0.011243365 0.003950708 -0.049950697 -0.011310522
000170 34 64 19 bd 79 57 00 bd 5b ae e3 3c 88 b1 4a 3d
       -0.037449077 -0.03133342 0.0277931 0.049485713
000180 05 2e 70 3d 05 39 3b 3d c6 12 57 bc 44 34 6e bd
       0.058637638 0.045708675 -0.0131270345 -0.058155313
000190 73 24 0d 3d 92 c3 34 3d 18 39 6b bc 38 60 af 3c
       0.03445859 0.044131823 -0.014356874 0.021408185
0001a0 61 ab 12 bc 15 92 86 3c cc 9e 11 3d aa 3e 4d 3c
       -0.008951993 0.01642708 0.03555183 0.012527147
0001b0 e1 82 63 3c 40 f8 c5 3c d2 04 ef 3c 3d 66 0e bb
       0.013886184 0.024166226 0.029177103 -0.002172842
0001c0 db 13 dc bc 04 3b 8d bc 21 df d4 bc 3c 41 4c bd
       -0.026864937 -0.017240055 -0.025985302 -0.0498669
0001d0 2c 39 e6 bb c1 b8 58 3c c5 74 23 bd 5d 39 cd 3b
       -0.0070258584 0.0132276425 -0.039906282 0.0062629418
0001e0 78 32 8c bd d0 1b 31 3d c5 45 9c 3c 33 cc ce bc
       -0.06845564 0.043239415 0.019076237 -0.025243854
0001f0 63 1d bf 3c 11 2d d8 bc 67 7f ef 3b a2 e4 59 bd
       0.023329442 -0.026388677 0.0073088887 -0.053196557
000200 40 58 57 3c 1d 65 85 bd f3 48 d3 3c d4 50 a0 bc
       0.013143599 -0.065134265 0.02579162 -0.019569792
000210 1d 16 3f 3d 11 6b 02 bd 7f 1b 67 bc 90 33 67 bd
       0.04665195 -0.031840388 -0.014105677 -0.05644566
000220 b8 d0 7b bd 59 e4 1b bd 1b ef 10 3c b6 78 58 3a
       -0.061478347 -0.038059566 0.00884607 0.00082577334
000230 03 8e 4a bc b9 64 6d 3c 2d 2c cc 3c 40 ef f1 bc
       -0.01236296 0.014489346 0.024923408 -0.029533029
000240 78 30 ac 3c e0 a4 d7 3c 05 4c 57 bb 60 ae 1d bd
       0.021019205 0.026323736 -0.0032851708 -0.038496375
000250 fa 62 d2 3c 73 93 58 bd 61 75 f3 3c 38 34 f5 3c
       0.025681961 -0.052874994 0.029719057 0.029932126
000260 88 d6 df bc 74 d9 22 3d 7b c6 5e 3d fc 36 83 bb
       -0.027323976 0.03975816 0.054388504 -0.0040043574
000270 72 86 ca 3c fc 0d 8d bd 9e b8 e3 bc 2c e3 93 bd
       0.024722312 -0.06887433 -0.027797993 -0.07221064
000280 28 37 09 3d 83 ae c8 bc a9 69 83 bd 61 11 18 3d
       0.033499867 -0.024497276 -0.064166375 0.03712595
000290 37 ef 16 bc 9e c1 ed 3c bd 4a 07 3d 33 25 55 3c
       -0.009212307 0.029022988 0.03303026 0.013009357
0002a0 33 5c 0a 3c bb 8a 24 3d 4e a6 81 bc 83 d0 54 3d
       0.008444834 0.040171366 -0.01582637 0.051956665
0002b0 a9 8e c3 3b 49 8d 32 bd ec f0 dd ba 15 86 c3 ba
       0.005967934 -0.04359177 -0.0016932762 -0.0014917279
0002c0 49 c8 04 bd 55 d1 6d 3c ad 57 35 bd 69 81 3c 3b
       -0.03241757 0.014515241 -0.044273067 0.0028763658
0002d0 e3 be 1b 3d 15 cb 02 bd a3 6f b3 3c b7 a4 4f 3d
       0.03802384 -0.031931955 0.021903818 0.050694194
0002e0 d1 7d 20 3d fa b2 99 bc ec 5b 4f bd 04 52 96 3c
       0.039182488 -0.0187621 -0.050624773 0.018349655
0002f0 f3 f0 0c 3d 3d 84 8b 3b 04 cf 50 bd f5 a6 8d bc
       0.034409475 0.0042577074 -0.050978675 -0.017291525
000300 7b b6 e8 3c ea 72 d4 3b c0 29 c8 3c 16 24 06 3d
       0.028407326 0.0064834254 0.02443397 0.032749258
000310 f5 76 c7 3c 42 39 e1 bc 85 c7 8b bc 86 10 50 bd
       0.024348715 -0.027493123 -0.017062912 -0.050797008
000320 1f 88 b2 bc 0f 84 87 bc 6a c8 07 3c 52 cd 90 bc
       -0.021793423 -0.016542463 0.0082875285 -0.01767603
000330 37 2e 41 bd 05 7e 5c 3b 83 0b 43 bd 86 e3 2d 3d
       -0.047163215 0.003364445 -0.0476184 0.04245331
000340 77 af 4b bd 1f 93 2e bd ed 14 1c bd c2 4f 63 bd
       -0.049727883 -0.042620774 -0.038105894 -0.055495985
000350 8a 11 1a bd 75 3b 1b 3c 8b cb 1c 3d a8 45 13 bd
       -0.037614383 0.009474625 0.03828005 -0.0359551
000360 98 cf cb 3c b8 59 23 bc 2e b3 85 3c b3 8c 32 3d
       0.024879262 -0.009970121 0.016320791 0.043591212
000370 05 4f 07 bd f0 cc 5f bd a7 95 4c bd d9 7f ae bc
       -0.033034343 -0.054638803 -0.049947407 -0.021301197
000380 4d d8 31 bd 6a 4f 16 3d 65 e0 08 3c b1 4d c7 bc
       -0.04341917 0.03669683 0.008354281 -0.024329038
000390 4f a0 36 3d d3 cf 03 bc 42 4b 22 bd 5b bc 72 3c
       0.044586476 -0.008045155 -0.039622553 0.014815415
0003a0 77 69 85 3b cb 35 f6 3c c1 ec 19 3c c6 d3 43 3d
       0.0040714103 0.030054947 0.009394825 0.047809385
0003b0 8c 55 f0 bc 36 bd e0 bc 95 cb 2c bd 4a 49 89 3a
       -0.029337667 -0.027433973 -0.04218634 0.0010474112
0003c0 32 80 8e bd 06 a9 03 bd 8d 24 23 bd d1 dd 12 bd
       -0.06958045 -0.032143615 -0.03982978 -0.03585607
0003d0 38 f0 a2 3c 37 ca 0a 3c 3a 8d 01 bb 7a 28 e6 bc
       0.019889936 0.008471063 -0.0019768015 -0.028095473
0003e0 dc a0 21 3c d9 58 c3 3b 89 66 81 b8 3d 01 46 bc
       0.009865012 0.005961519 -6.170298e-05 -0.012085256
0003f0 36 e0 d8 bc 30 74 0f bd 91 3f f5 3b 89 a1 2b 3d
       -0.0264741 -0.035022914 0.0074843843 0.0419021

conv2.bias f4 [64]
000000 70 3c 32 3d da 22 79 bd d7 39 8b bc 8d 31 96 bc
       0.04351467 -0.060824253 -0.016995354 -0.018334175
000010 db 5b ae 3c 01 af 96 3b 19 da 8d ba 4d 23 d2 3c
       0.021284034 0.004598499 -0.0010822444 0.025651598
000020 f2 da 22 bd e3 06 d9 bc ae 62 05 bd 3b b4 f9 bc
       -0.039759584 -0.026492542 -0.03256481 -0.030481448
000030 a6 cf 72 ba 97 a4 85 bd ef 1b 6b bc 01 8a 12 bd
       -0.00092625094 -0.06525534 -0.014349922 -0.035776142
000040 ed f6 3f bd 4b 5c 13 3d 43 43 b6 bc 13 18 60 bd
       -0.046866346 0.03597669 -0.02224887 -0.05471046
000050 34 14 4c bb 0d e2 8c 3c 51 4e 72 3d 21 b0 00 3d
       -0.0031139972 0.017197633 0.05915672 0.03141797
000060 2d ae 10 3d fc c1 cf 3c bd 12 ef bc 5d ef f4 3b
       0.035322357 0.025361054 -0.02918374 0.0074748234
000070 63 c3 25 3d 76 84 cc 3c 65 f8 18 bd 64 9a e0 3c
       0.04046954 0.024965506 -0.037346262 0.02741737
000080 0f b0 0b 3d 3e 7d 2b 3c af ec da 3c 6a 54 ec bc
       0.03410345 0.010466872 0.026724188 -0.028848846
000090 11 16 06 bd c4 0b 8a bd e3 eb 91 bd ec 21 ff bc
       -0.032735888 -0.06740525 -0.0712507 -0.031144105
0000a0 77 15 89 3c 03 d3 f0 3c fc e9 7f bc 7c 5e 01 ba
       0.016733868 0.029397493 -0.015619751 -0.0004935039
0000b0 3b cf 08 bd 76 e5 3c bd 98 11 62 bc df 8f a4 bc
       -0.033400755 -0.04611727 -0.01379814 -0.020088134
0000c0 9c 1b 72 bd a8 d5 b0 bd 39 9f d0 3b 61 d4 30 3d
       -0.05910836 -0.08634502 0.006366637 0.04317129
0000d0 56 57 78 bd 06 1d 42 bd 8c cd d2 3c 95 c7 89 bd
       -0.060630165 -0.04739096 0.025732778 -0.067275204
0000e0 52 31 3d bc 03 1d 2b bd ce d8 d8 3c 85 59 2e bd
       -0.011547403 -0.041775715 0.026470568 -0.04256584
0000f0 0c 76 9e bd 1c 50 8a bd 3b 85 f3 bc 61 fd 4f bc
       -0.077373594 -0.06753561 -0.029726615 -0.012694688

conv3.weight f4 [128, 64, 3, 3]
000000 82 46 37 3b f8 db 41 3c 99 7b 9e 3c ae 83 d2 39
       0.002796561 0.01183223 0.019346045 0.0004015243
000010 23 ad e3 bb eb f2 3f ba 35 58 29 bd 52 6d a0 bc
       -0.0069481297 -0.00073222694 -0.041343886 -0.019583378
000020 2a 6f 62 3b 25 ad 93 3c 3b 7f 88 3b a2 a3 92 3d
       0.0034551122 0.018026898 0.0041655577 0.07160117
000030 c8 d2 bb 3c 54 40 8d bd ea 9f a2 3c fc df 27 bd
       0.022927657 -0.06897035 0.019851644 -0.040985093
000040 f3 06 c5 3c d3 fc 02 bc bd ea 28 3d 3c 56 13 3d
       0.024051165 -0.007994848 0.04123949 0.03597091
000050 f5 1a 23 bd 39 da 97 3c 06 07 75 bc 0c e1 da 3c
       -0.03982063 0.018536674 -0.014955288 0.026718639
000060 f4 b0 9e 3d d4 84 b7 3d c4 79 46 3d 7e 67 c2 bd
       0.07748595 0.08960882 0.04845597 -0.09492396
000070 6a b5 27 bc 96 4e a0 bd 56 eb 81 bd b7 ce 7f bc
       -0.010236124 -0.07827489 -0.06343715 -0.0156132495
000080 a5 d4 9b bc ee dc ae bd 2e dd 29 3d 08 82 20 3d
       -0.019022295 -0.08538233 0.0414707 0.039186507
000090 ef e4 30 3c c3 a7 8a bd cf c5 82 3d 43 a5 7c bd
       0.0107967695 -0.06770279 0.06385385 -0.061681043
0000a0 68 38 c0 bc df 89 02 3d 19 84 de 3d 20 aa 95 3d
       -0.023464397 0.031869765 0.108650394 0.073078394
0000b0 1a e3 e5 3c 9e 59 9e bd 63 cc 51 3c 39 7e a3 3d
       0.028062392 -0.07731937 0.012805077 0.079830594
0000c0 7f ba 96 bd fe 53 ee bc fb be 41 3d c6 e6 ad 3d
       -0.0735979 -0.029092785 0.047301274 0.08491282
0000d0 aa e0 84 3d 41 c4 ed 3c e7 d8 21 3d 4e 83 a3 bd
       0.06488164 0.029024245 0.039513495 -0.07984029
0000e0 c6 bd 68 3d 59 40 8d 3d cd f3 26 bd 44 21 5c 3d
       0.056821607 0.06897039 -0.04075985 0.053742662
0000f0 9e 40 47 3b f0 56 11 3d b6 d0 a1 3a 64 76 c8 bb
       0.0030403505 0.0354833 0.0012345526 -0.006117629
000100 52 22 a9 3b 23 de 9a 3d 2f 17 ef bc d7 88 da bb
       0.005161562 0.075619005 -0.02918586 -0.0066691446
000110 f1 04 43 bc 89 9a b1 3c 05 60 1a bc 1d 28 4e bc
       -0.011903034 0.021680133 -0.009422307 -0.012582806
000120 dc d2 f8 3c 15 80 ae bc d1 84 0f 3d 4e 29 21 bd
       0.030373983 -0.021301309 0.035038773 -0.03934603
000130 f8 b3 a3 bb 27 46 8a bc 80 91 28 bc 4d ea df bc
       -0.004995819 -0.016879154 -0.010288596 -0.027333403
000140 d1 be e6 bb be 10 9a 3d d2 2a e1 bc 06 28 93 bd
       -0.00704179 0.075227246 -0.027486239 -0.07185368
000150 22 4b b9 3d d6 f4 ca 3b 8d 81 97 3d 89 36 fd bc
       0.090475336 0.0061937375 0.07397757 -0.030909793
000160 80 f1 64 bc 6c 6d 5a 3d ea 38 d5 bd e0 ff 53 bd
       -0.013973594 0.05332701 -0.10411246 -0.051757693
000170 0a 01 dd bd 09 a3 94 bb e4 8f 7e bd 59 9f 10 bd
       -0.10791214 -0.004536037 -0.062148944 -0.035308216
000180 58 3c bc bd 85 0d de bc 5d 99 fd bc 34 34 f0 3d
       -0.09191197 -0.027106056 -0.030956918 0.11728707
000190 08 cf 4c 3b 1f fe 3e bd 0f a8 98 3d 71 a7 0d bc
       0.003125133 -0.046629068 0.0745393 -0.008645878
0001a0 22 b0 a7 bd 43 cb a0 3b 99 2b e2 3c c4 28 f7 bb
       -0.081878915 0.004907043 0.02760868 -0.0075427014
0001b0 82 0f 7c bd 7c 87 1b bd 2e 41 0e 3d a7 33 8b bd
       -0.061538227 -0.037971005 0.03473013 -0.06796961
0001c0 34 cf 45 bd a7 ce 46 3b 32 f7 3b 3c d1 85 10 be
       -0.048293307 0.0030335577 0.01147251 -0.14113547
0001d0 69 98 68 bb 24 47 f2 bc ec e4 b6 bc cd c2 07 bd
       -0.0035491234 -0.029574938 -0.022325955 -0.03314476
0001e0 a6 f4 11 3c 18 9a 69 3c 77 43 03 bc 65 c0 fc 3b
       0.008908426 0.01425793 -0.00801169 0.007713365
0001f0 37 3e 37 bc 4e a3 21 3d dc 02 31 3d e3 52 2b bc
       -0.011184267 0.03946238 0.043215618 -0.010456773
000200 c1 cf 13 bd 13 fc 0b 3d 43 62 a6 3d 78 53 d5 bd
       -0.0360868 0.034175944 0.08124211 -0.10416311
000210 70 37 c9 bc 83 bc 39 bc 12 6d 98 bd e1 95 ed 3d
       -0.024562567 -0.011336449 -0.074426785 0.11600853
000220 06 ed 6f 3c 38 82 5d bd af 65 02 3e 4d 9f 27 3d
       0.014643913 -0.054079264 0.12734102 0.040923405
000230 72 e0 ea bc 80 ed 16 bb ec 06 8d bd e3 ae 2d 3d
       -0.028671477 -0.0023029745 -0.06886086 0.042403113
000240 03 c9 d9 bc df 07 8c bc dd f6 97 3c dd 96 c2 39
       -0.026585108 -0.017093597 0.01855033 0.00037114965
000250 c8 96 70 bd 5c 9b 7d 3d 62 46 45 bd 0a b4 8b 3d
       -0.058737546 0.06191574 -0.048162825 0.06821449
000260 fd 79 11 3d 2a d1 40 3d b1 52 dd 3a 17 3d 19 bd
       0.035516728 0.047074474 0.0016885606 -0.037411775
000270 2f 67 00 bd e1 e8 df bc 09 24 01 3d 9d 4b fd 3c
       -0.031348404 -0.027332725 0.031528506 0.030919844
000280 6a 12 ad bc 9c e5 0a bc 53 d4 94 3d c0 a0 32 3d
       -0.021126945 -0.008477595 0.0726706 0.043610334
000290 e9 60 b6 bd 89 9e 1d 3d d7 55 44 3d c3 94 a0 bd
       -0.08905203 0.03848127 0.047933426 -0.07840874
0002a0 17 f1 78 3d 50 49 e4 3c eb 95 84 bd db e8 70 bd
       0.060776796 0.02786699 -0.06473907 -0.05881582
0002b0 90 90 1e 3e d8 8a f5 3c a2 93 2b be 54 13 54 bd
       0.15484834 0.029973432 -0.16755536 -0.051776245
0002c0 38 28 9a bc b0 78 13 be 51 4d e8 3a 52 6d d6 bd
       -0.018818006 -0.14401507 0.0017723237 -0.1047007
0002d0 c3 e9 02 bd e8 04 c4 bd f8 36 f0 bd b1 c6 fa 3b
       -0.031961214 -0.09571248 -0.117292345 0.0076530804
0002e0 bf c0 38 be d8 7d 0c bd 7b 12 74 bd df 15 6f bd
       -0.18042277 -0.0342997 -0.059587937 -0.058370467
0002f0 47 3d 4c bc 48 90 b0 3c 19 f0 d9 bc c6 18 e3 bc
       -0.0124657815 0.021553174 -0.026603745 -0.027721774
000300 e3 f4 e3 3c 7e 8a 9b bc 2e c0 8f bb e6 bc 8a bc
       0.027826732 -0.018986937 -0.0043869233 -0.016935777
000310 34 a0 30 3d be 15 c4 3c 03 19 0a 3d 95 26 cf 3d
       0.04312153 0.023936149 0.03371526 0.10114781
000320 66 78 ba 3d 93 24 c9 bd ee 9c 0b 3d 69 56 e3 bd
       0.091049954 -0.09821429 0.034085207 -0.11100466
000330 89 31 99 3d 1e 92 8c 3d 2f 69 ef bd 3e ed 0b 3d
       0.07480151 0.06863807 -0.11689984 0.0341618
000340 73 52 6d bd ba cd 4b 3d 43 9e 9f bd f8 96 18 3c
       -0.057939958 0.049756743 -0.07793858 0.0093133375
000350 fe 7b 01 bd 18 fa 4a 3d 12 39 61 bc ef c7 8b bd
       -0.03161239 0.049554914 -0.013746517 -0.06825244
000360 0a 73 ae 3d 40 8c ee b7 bb ba 0e 3c ab a7 a1 3c
       0.08518036 -2.843712e-05 0.008711512 0.01973327
000370 33 e3 54 3d d4 69 18 3d 5c c3 b4 3d e8 cb 0e 3d
       0.051974487 0.0372103 0.08826324 0.03486243
000380 58 11 9c 3d f1 3f a5 bd 1d 3f 03 bd 1c a8 15 3d
       0.076204956 -0.080688365 -0.03204261 0.036537275
000390 ac 07 b2 bd cc 03 b2 bd dc c2 3c bc d2 97 b0 bd
       -0.086928695 -0.086921304 -0.0115210675 -0.086227074
0003a0 d4 d3 b7 bd 0d b0 d2 bc dd 99 90 3c 55 84 21 3d
       -0.0897595 -0.025718713 0.017651493 0.039432842
0003b0 88 2a e7 3c c8 52 7b 3d 94 30 36 bb 7e b9 cc bc
       0.028218523 0.061358243 -0.002779995 -0.024990793
0003c0 51 8e 8c 3d af 29 93 3d 0f e6 da bc 4b 72 53 bc
       0.06863082 0.07185685 -0.026721029 -0.012905668
0003d0 48 db 37 3c 26 64 69 bd 34 c0 a0 bd 90 26 d9 bb
       0.011221714 -0.056980275 -0.0784916 -0.0066269115
0003e0 5a 68 1b be a0 71 4a 3d f3 d6 08 bd 4b d5 53 bd
       -0.15176526 0.049424767 -0.033408117 -0.051717084
0003f0 4c 52 71 3d 6c c8 dc 3c 28 3d d8 bd 26 ce 3e bc
       0.058916375 0.026951037 -0.1055854 -0.011645829

conv3.bias f4 [128]
000000 08 5c a5 3c e1 2a 30 bd b3 a7 33 bc e8 04 1f bd
       0.020185485 -0.043009643 -0.010965276 -0.03882304
000010 cb 10 85 bd 34 6b dc 3c 90 e0 09 bc f9 42 17 bc
       -0.06497344 0.026906587 -0.008415356 -0.009232276
000020 28 d6 26 bd 41 cb 98 3b 56 fe 00 bd 7e 91 4a 3c
       -0.04073158 0.0046629016 -0.031492554 0.01236379
000030 a3 58 2c 3c 13 5e 48 bb 54 4e 14 3d ab 0b 91 bb
       0.0105191795 -0.003057365 0.036207512 -0.0044264398
000040 86 6e 47 bd 4c 77 f6 3c 86 98 34 bc b1 0c c6 bc
       -0.048689388 0.030086182 -0.011022693 -0.024175974
000050 3b cd e2 bc a3 c5 f0 bc e8 2d 6a bd 63 b8 2f bd
       -0.027685752 -0.029391116 -0.057172686 -0.042900454
000060 3c dc 63 bd bf 62 25 bd 2b 05 2c bd 79 f8 23 bd
       -0.055629954 -0.040377375 -0.041997116 -0.040031884
000070 87 7e 2f 3d fb 65 bd bc b2 08 1a 3d 79 50 8b 3a
       0.042845275 -0.023119917 0.03760595 0.0010628841
000080 c8 1a 43 bc a7 ed 4b bd 45 d4 76 bd a8 bc 5b b9
       -0.011908241 -0.04978719 -0.06026103 -0.00020955747
000090 4a 93 a3 3c 67 97 17 3b 4b c7 e6 3c 46 59 98 bb
       0.019967694 0.0023131014 0.028171202 -0.004649314
0000a0 79 e5 99 bd 0e 49 c0 3c 28 00 f6 3b 71 c5 1b 3c
       -0.075144716 0.023472335 0.007507343 0.009507523
0000b0 4a 29 7b 3c c1 96 6b 3c 79 02 c8 bc 79 e2 30 3c
       0.015329668 0.014379204 -0.024415242 0.010796183
0000c0 83 6d 06 bd d0 21 ce 3c 94 72 e7 3c 70 95 90 3c
       -0.032819282 0.025162607 0.028252877 0.017649382
0000d0 1c 7f dc ba 9d 1c a3 bb 21 87 cd ba 69 2f 28 bd
       -0.001682255 -0.004977776 -0.001568053 -0.04106084
0000e0 02 f5 a9 bd 66 a8 27 bd 79 58 1d 3d 2d 9b d9 bc
       -0.08298685 -0.04093208 0.038414452 -0.026563251
0000f0 27 ab 31 bc fe c6 b8 bb b1 3c bc bc 55 2e 90 bc
       -0.010844029 -0.005638956 -0.022978159 -0.017600218
000100 1a dc 62 bc 52 74 34 ba 87 9a 90 bc 6f 4b c3 3c
       -0.013846422 -0.0006883788 -0.01765181 0.02383968
000110 bf 29 ff 3a e3 a6 a3 bc 7c 85 47 bd 35 b8 8f bc
       0.0019467397 -0.019977039 -0.048711285 -0.017543891
000120 1c 41 59 ba 76 5e c1 3c 3f d9 3a 3c de b1 67 3c
       -0.0008287595 0.023604613 0.011404335 0.014141528
000130 3b dd 42 bd e5 98 84 3c 84 a7 83 3c a0 11 4f bd
       -0.047574263 0.016186187 0.016071089 -0.050553918
000140 e3 b9 25 bd cd 86 79 3c 41 33 5c bb 6a 03 17 bd
       -0.04046048 0.015229893 -0.0033599886 -0.03686849
000150 4a a9 26 bd 53 9b 10 bc 9a 2b 08 3d 1f 69 ee bb
       -0.04068879 -0.008826095 0.033244707 -0.007275715
000160 db 48 b7 3b 6d 09 a3 bc 93 9b 4c bd 9b 90 84 bc
       0.005593402 -0.019901956 -0.049953055 -0.016182235
000170 b9 4b eb bc 0d 0b 61 3c f3 ec 89 3c 8b cb 72 3c
       -0.02872263 0.013735545 0.016836619 0.014819036
000180 04 03 94 bd 8b a8 13 3c 74 b4 32 3d 16 fc 89 bb
       -0.07227138 0.009012352 0.043629125 -0.004210959
000190 5c d8 59 bc 06 82 05 bd c2 3d 18 bd be ec e0 bc
       -0.013296213 -0.032594703 -0.03716827 -0.027456637
0001a0 30 06 29 bd d4 73 ca bb ab 71 41 bd c0 d9 24 bd
       -0.041265666 -0.0061783586 -0.047227543 -0.040246725
0001b0 b5 62 5f 3c 48 94 f1 bc 49 c4 63 bc 76 df 49 3d
       0.013634373 -0.029489651 -0.0139017785 0.049285375
0001c0 31 09 27 3d 83 4e 82 bc 73 44 b3 bb 60 be 1b bd
       0.04078025 -0.015906578 -0.0054708063 -0.038023353
0001d0 72 89 b9 3a f6 c0 28 3d 1f 25 45 3c ab 15 e0 bc
       0.0014155342 0.041199647 0.012032776 -0.027354082
0001e0 d9 d3 c2 bb 1d 92 1e bd 4e b0 a8 3c 0c 2b 2a 3d
       -0.0059456644 -0.038713563 0.020591881 0.04154496
0001f0 dd 0f 01 3d 84 01 bd 3b 9a 06 3a bd a2 31 26 bb
       0.03150927 0.005768003 -0.045416452 -0.0025359173

fc1.weight f4 [10, 128]
000000 60 c9 bc 3d 15 b8 d2 bd 10 a4 27 bd d1 2c be bd
       0.09218097 -0.10289017 -0.040927947 -0.09285892
000010 8f 57 da 3c 32 b5 76 3d f1 c3 0e bd 3d 1a 8b bd
       0.02665308 0.060231395 -0.034854833 -0.06792114
000020 65 d2 47 3c 30 b8 f0 bd 2a e4 04 bd d4 83 b9 bd
       0.012196158 -0.11753881 -0.032444157 -0.09058347
000030 9c 86 b0 bd a9 21 45 3d 8d 94 d4 3c 87 19 a4 bc
       -0.08619425 0.048127804 0.02594974 -0.020031704
000040 75 74 0d 3d 12 5c ff 3c 28 b2 70 bd 38 a6 c9 3d
       0.03453489 0.031171832 -0.058763653 0.09846157
000050 6e 75 9e 3c 21 f3 b9 bd 8d 54 e6 3d 4a 23 8f bd
       0.019343104 -0.09079576 0.112465955 -0.06989153
000060 7c ce 86 bd 0d 62 2b bc 1f 6e bb bd 56 ad 9c bd
       -0.065823525 -0.010460389 -0.09151863 -0.07650249
000070 85 ef 08 3e 64 a0 3e 3d 14 b6 82 3d 33 e0 4b 3d
       0.1337262 0.04653968 0.06382385 0.04977436
000080 bd b2 fb 3d 13 1a 0b be a2 c9 1e bd f0 d0 ce bd
       0.12289951 -0.13584165 -0.03876651 -0.100984454
000090 52 00 63 be 68 b7 72 3d b8 4b e8 bd c8 2c 23 3b
       -0.22168091 0.05925694 -0.11342567 0.0024898518
0000a0 0f dd b1 bd 06 ae ab bd 9f b5 b2 3d 89 65 96 bd
       -0.08684742 -0.08382802 0.08726048 -0.07343585
0000b0 bd 63 cf b9 80 40 3e 3c bf c0 32 3d f4 cd a6 3b
       -0.00039556428 0.011612058 0.04364085 0.0050904695
0000c0 5e 15 9d bc e1 16 88 3d c0 8b f1 bd aa 97 0b be
       -0.019175228 0.06644989 -0.11794233 -0.13632074
0000d0 42 ac f0 bd 19 e4 59 be e6 48 1f bd ac 5c a3 bd
       -0.117516056 -0.21278419 -0.03888788 -0.0797666
0000e0 7e 9f df bd a7 26 15 3d 36 9e 31 be e7 c8 31 3d
       -0.109190926 0.036413815 -0.17345509 0.043404486
0000f0 50 dc bd bd 25 b2 1d bc 66 82 e0 3d df fe 1d 3c
       -0.09270537 -0.0096249925 0.109623715 0.009643286
000100 32 bd dd 3d f4 91 2c be e3 86 a2 3d c5 64 29 3d
       0.10827102 -0.16852552 0.07935884 0.041355867
000110 14 3b 2c bc b2 0b 70 3d e2 96 73 3d 79 9d 22 be
       -0.010512132 0.058604904 0.059470065 -0.15880384
000120 44 7d 06 be b3 fc 9d bd b2 0b 85 3d 62 04 4d 3c
       -0.13133723 -0.07714214 0.06496371 0.012513252
000130 43 7b 88 3d e3 52 7b bd b6 ae 94 3c e8 2b 4b bd
       0.06664135 -0.061358344 0.018149715 -0.04960242
000140 5b a1 85 3d 31 09 ae bd 85 f0 60 3c b0 08 68 3d
       0.06524917 -0.08497847 0.013729219 0.05664891
000150 1b 7c 02 be f8 c1 91 bd e9 96 5f 3d 64 2a bb 39
       -0.12742655 -0.07117075 0.05458728 0.00035699003
000160 ba 38 38 be ee c1 49 3d ce 4a d2 bd ab f6 3d bd
       -0.1799039 0.04925721 -0.10268174 -0.04637782
000170 26 5f 43 3d 87 db c7 bc d4 bf a0 3d 57 56 3c bd
       0.047698162 -0.024396671 0.07849088 -0.045980778
000180 15 f0 36 bd 53 a5 d5 bd b2 22 e5 3d 5b e6 50 bd
       -0.044662554 -0.10431924 0.11188258 -0.051000934
000190 08 c3 e3 3c e0 8a 82 bd 02 47 00 bb 5f 5c 43 be
       0.02780296 -0.063741446 -0.0019573574 -0.19078206
0001a0 62 bb 86 bd 7e b4 24 bc 77 e8 b7 bd 67 42 b4 bd
       -0.06578709 -0.010052798 -0.08979886 -0.08801728
0001b0 64 d6 f1 bd bf 0a 9d 3d 05 5c 80 3d 79 57 9d 3d
       -0.1180847 0.07668065 0.06267551 0.076827
0001c0 de 80 04 bb dd 91 cc 3c f5 c7 58 bd 15 57 f3 3d
       -0.0020218412 0.024971897 -0.05292507 0.11881844
0001d0 2b d7 46 be 9b d9 98 bc 2b 47 c6 3d 5d 78 74 3d
       -0.19418018 -0.01865845 0.09681543 0.0596851
0001e0 49 74 e7 bd 91 00 27 3d c0 b4 7c bd a7 7d 2c bd
       -0.113014765 0.040772025 -0.061695814 -0.04211202
0001f0 ce 14 27 bd 9b 38 d7 3d 69 62 c6 bd 89 8a 04 3d
       -0.040791325 0.105088435 -0.09686739 0.03235868
000200 f7 aa 08 3e 0b 6d 96 3c 25 f1 83 3d 8b e8 4c 3d
       0.13346468 0.018362543 0.06442479 0.050026458
000210 2d 1b c3 3b eb 9b 01 3d 1f 41 08 be 0b d6 64 bd
       0.0059541673 0.031642836 -0.13306092 -0.05586819
000220 8b eb 1c be 01 1c 8e 3d b7 ab a8 3d 50 8b f9 3c
       -0.15324228 0.06938935 0.08235877 0.030461937
000230 23 49 64 be 85 37 84 bd d6 65 12 be da 8c 10 3d
       -0.22293524 -0.06455902 -0.1429666 0.035290577
000240 6d f6 4c be 9e b5 da bd 76 af dc bc 8a 3c bb bb
       -0.20015879 -0.10679172 -0.026939135 -0.005714004
000250 a6 c2 b8 bd 6d 13 84 3d 4c c6 a6 bd fb 20 5b be
       -0.09021501 0.06449018 -0.08143291 -0.213993
000260 47 01 0c be a1 83 a2 3d 71 6e 1d 3d 85 0e 1d 3e
       -0.13672362 0.079352625 0.038435403 0.1533757
000270 aa ce 8b 3d 56 d6 c5 3d d3 08 e7 3d 54 e2 71 3b
       0.068265274 0.09660022 0.1128098 0.0036908584
000280 36 4e 1f be 3d d7 00 3d cc 17 51 3d b4 9c 88 3d
       -0.15557179 0.031455267 0.051048085 0.06670514
000290 f9 34 a0 3d 2a d2 4d be 23 1c f2 3d c2 d4 c0 3b
       0.07822604 -0.20099702 0.11821773 0.0058847377
0002a0 27 96 81 bd b3 fd f4 bc 74 6b f7 bd ea f0 74 be
       -0.063274674 -0.02990613 -0.12081042 -0.23920026
0002b0 7a a2 f6 3d 52 1b 88 3d 8a 9f 43 3d c4 39 8d 3d
       0.12042709 0.06645836 0.04775957 0.068957835
0002c0 05 9c 20 be 19 26 35 bd 36 b0 0b be 45 41 ac bd
       -0.15684517 -0.044225786 -0.13641438 -0.08410887
0002d0 b1 90 ce 3d 50 3d 5d bd 04 53 7e 3d 16 04 3f bb
       0.100861914 -0.05401355 0.06209089 -0.0029146723
0002e0 da 2d 88 bd 4e 1e 00 bd 3b 5d ec 3d 01 4f ca 3d
       -0.066493705 -0.0312789 0.1154122 0.0987835
0002f0 f2 17 a0 3d 31 dc cf bd b1 55 9a bd 29 3e e9 3a
       0.07817067 -0.1014942 -0.075358756 0.0017795014
000300 f9 17 0b be 07 4d 0a bd 6b 74 3e be b4 33 29 be
       -0.13583364 -0.033764865 -0.18599097 -0.1652363
000310 3d 2e db 3c 36 7a 36 be 09 56 6f 3d 66 87 7e bd
       0.026755447 -0.17820057 0.05843166 -0.062140845
000320 f2 e1 a4 3d 79 09 f3 3d eb dd e7 bb 99 3e 88 be
       0.08050908 0.11867041 -0.007076015 -0.26610258
000330 30 43 b7 bd 44 25 4b 3c 5d 17 4d 3d 10 73 a7 bb
       -0.08948362 0.012399022 0.05007111 -0.005110152
000340 21 ab db 3c 33 2a a0 3d 26 2f 93 be 2f ce 00 3e
       0.026814999 0.07820549 -0.2874691 0.12578653
000350 14 99 0e be 97 c9 92 bd 49 75 24 3e 48 15 84 3d
       -0.13925582 -0.071673565 0.16060366 0.064493716
000360 04 f9 7e 3d c2 88 bc bd 32 b8 1a 3d a9 b3 57 bd
       0.0622492 -0.09205772 0.03777332 -0.05266157
000370 3d ac 18 3d 3b e7 a7 3d 83 61 aa 3d bd b0 57 bc
       0.037273634 0.081984006 0.0831938 -0.013164696
000380 94 5e 09 3e 28 cf be 3d 0d ae 0d be 98 f9 24 be
       0.13414985 0.09316856 -0.13835926 -0.16110837
000390 0a e9 aa 3d 5b d9 67 bd 8f 1c 91 3d a7 2f 30 bd
       0.0834523 -0.05660377 0.07085525 -0.043014195
0003a0 2d e6 c1 3c 7a 5e aa 3d f3 ac 14 be 25 b9 b0 bb
       0.023669327 0.08318801 -0.145191 -0.0053931647
0003b0 56 c4 4e bb ee 15 94 be 36 fb 22 be ba 60 ac 3d
       -0.003155013 -0.2892298 -0.15916142 0.08416887
0003c0 2a 67 8b 3d fe 17 6f 3d 63 0f ba 3b a9 c1 55 be
       0.06806786 0.05837249 0.005678104 -0.20874657
0003d0 96 61 23 be d5 cc b5 bd f4 e1 42 bd d8 27 8c bd
       -0.15955195 -0.08876959 -0.047578767 -0.06843537
0003e0 4d 51 7f bd eb b8 7a be 3f d0 9c 3d fe 0f 9e 3c
       -0.062333394 -0.24484603 0.07656907 0.019294735
0003f0 fc 16 03 3d 4e 9d bd 3d e9 70 22 be 9e dd ef bd
       0.03200434 0.09258519 -0.15863384 -0.11712192

fc1.bias f4 [10]
000000 b5 5f bc bb ca bd 69 3d 80 52 27 bd 54 d1 00 bd
       -0.005748714 0.057065763 -0.040850163 -0.03144963
000010 13 f7 ff bb 94 26 ac 39 c1 b0 3d 3d 0c b9 78 3d
       -0.007811436 0.0003283514 0.046311144 0.06072335
000020 f5 d7 7d 3d 8b f2 95 bd
       0.06197353 -0.07321652
