models/model.pth (torch, 378536 bytes, 8 tensors)

conv1.weight f4 [32, 1, 3, 3]
0.0045398152 0.40118128 0.40383953 -0.20630516 0.007798072 0.46738577 -0.61554104 -0.6264627
-0.057355013 0.20698851 0.19368601 -0.30078486 0.20141312 -0.3533632 -0.06538447 0.26433375
0.32201383 0.09915419 0.51314133 0.22850074 0.06814187 -0.46526784 -0.63132364 -0.42266947
-0.27997473 0.1950983 0.29916734 0.30247307 -0.3406155 0.0118261445 -0.09200028 -0.05852773
-0.53969526 0.46334553 0.45140985 -0.35521796 0.21156326 -0.36012122 0.19005427 -0.26649126
0.04147386 0.2844728 -0.32819065 -0.20114923 0.4081444 0.042650227 -0.62870604 -0.41887257
0.3185315 0.11254157 0.00097418297 0.46338436 -0.16194509 -0.012493926 -0.01240582 0.25706306
-0.271441 -0.04058636 0.032624073 0.19265233 -0.03503312 0.007903721 0.019153597 0.19827719
0.07543949 0.36830315 0.0016225429 0.11798946 -0.16374461 -0.13554671 0.22742538 -0.39198193
-0.11217635 -0.25145206 0.191668 -0.04108284 0.16028525 -0.015862845 0.08743248 -0.3379721
0.20848939 -0.114631444 -0.46329355 -0.38882145 -0.018915774 -0.21761689 0.27996448 0.14678827
0.4832394 0.2140815 0.26377144 -0.25967574 -0.42802688 -0.3328934 -0.18186359 -0.11124673
-0.31536573 -0.4734334 0.025993094 0.32485142 -0.13438301 -0.087755606 0.2601514 -0.2804003
-0.27803347 0.18253715 -0.1343305 0.07306119 0.47724837 -0.3867974 -0.41876662 -0.093466714
-0.5185091 0.25744388 0.1545692 -0.22377399 0.16042688 -0.09963383 -0.35132527 0.44443387
-0.278423 -0.2355693 0.38677362 -0.16732334 -0.10591032 0.09730343 0.41119033 0.4089434
0.00044846407 0.2972997 -0.2611678 -0.51805085 -0.47554043 -0.6121092 -0.0339237 -0.080501206
0.040388748 0.22048596 0.26684868 -0.12669292 0.37397945 -0.08693934 0.08385811 0.19687107
-0.20813668 0.043506626 -0.26690343 -0.081769 0.2897549 0.21719141 -0.2690096 0.19061601
0.06683174 -0.30280647 0.48481143 -0.009117233 -0.33805552 -0.1715481 0.46816778 -0.24875441
-0.29095683 -0.43141603 0.018895248 -0.40655887 0.34207562 -0.15281586 -0.31548572 -0.30619347
-0.36025438 -0.11179263 -0.5408554 0.3549662 0.1931869 -0.47297767 0.52261245 -0.059952185
-0.17066653 0.28674442 -0.37416953 -0.58661675 -0.1433513 -0.4545865 -0.07934693 -0.22083858
-0.08490126 0.17903161 -0.22840552 0.049526107 0.22781561 -0.35904402 0.29548147 -0.23377801
-0.13418238 0.2569136 0.5072527 0.11528006 -0.31551847 -0.36810252 -0.3837906 0.09024389
-0.3143026 -0.12878557 0.27866074 -0.03486143 0.18256328 0.04973411 0.16662942 -0.045193247
-0.36567804 -0.5039666 0.28804594 0.10916238 -0.3615215 0.26570907 0.35289952 0.23344047
-0.4588517 -0.5401267 -0.3948957 -0.14851795 0.24233575 -0.22724558 0.5437585 -0.002250519
0.22123447 0.1486816 0.44481933 -0.040917784 0.26528797 -0.00967091 0.43693987 -0.46975252
-0.4144506 -0.46789286 -0.13721508 -0.39510286 0.12982295 -0.49687025 -0.2197247 0.37959477
0.039429076 0.49336347 0.4131911 0.46114442 -0.15766783 -0.59273463 -0.12623216 0.025097078
-0.34524038 0.037951663 -0.44287676 -0.549791 -0.2383205 -0.32496855 0.07168583 -0.3487909
00000000: bbc2 943b a267 cd3e 0ec4 ce3e a941 53be
00000010: f886 ff3b 304d ef3e 1994 1dbf dc5f 20bf
00000020: 17ed 6abd ccf4 533e a055 463e 7900 9abe
00000030: 3e3f 4e3e 05ec b4be 4be8 85bd c156 873e
00000040: ffde a43e 5a11 cb3d 3b5d 033f 19fc 693e
00000050: f78d 8b3d 9637 eebe 6d9e 21bf 2268 d8be
00000060: d958 8fbe d9c7 473e 762c 993e c0dd 9a3e
00000070: 2865 aebe 72c2 413c a56a bcbd c6ba 6fbd
00000080: 7829 0abf a03b ed3e 311f e73e 21df b5be
00000090: 0aa4 583e cf61 b8be 969d 423e 8b71 88be
000000a0: 7fe0 293d 6ba6 913e 9b08 a8be 10fa 4dbe
000000b0: 4ef8 d03e 01b2 2e3d e1f2 20bf 7776 d6be
000000c0: 9016 a33e 327c e63d 5060 7f3a b740 ed3e
000000d0: efd4 25be 53b3 4cbc c841 4bbc c59d 833e
000000e0: 51fa 8abe e23d 26bd d2a0 053d a746 453e
000000f0: e47e 0fbd 9c7e 013c 01e8 9c3c 2d09 4b3e
00000100: 0580 9a3d 3b92 bc3e 81ab d43a 75a4 f13d
00000110: abac 27be c2cc 0abe 33e2 683e dbb1 c8be
00000120: b7bc e5bd 53be 80be 9e44 443e 7b46 28bd
00000130: d121 243e ccf2 81bc cd0f b33d ae0a adbe
00000140: 3e7e 553e e4c3 eabd d034 edbe 9b13 c7be
00000150: 41f5 9abc f6d6 5ebe 8157 8f3e aa4f 163e
00000160: 286b f73e 2e38 5b3e 0d0d 873e 38f4 84be
00000170: 5726 dbbe 0171 aabe 733a 3abe 53d5 e3bd
00000180: 9e77 a1be dd65 f2be 78ef d43c ed52 a63e
00000190: b39b 09be 36b9 b3bd 9032 853e a190 8fbe
000001a0: 675a 8ebe 05eb 3a3e ef8d 09be 1ba1 953d
000001b0: e659 f43e 4f0a c6be 9468 d6be 7a6b bfbd
000001c0: 03bd 04bf afcf 833e 6347 1e3e 0225 65be
000001d0: f246 243e d20c ccbd e8e0 b3be d68c e33e
000001e0: 768d 8ebe 1439 71be 3107 c63e cf56 2bbe
000001f0: 83e7 d8bd 0547 c73d 8a87 d23e 0861 d13e
00000200: d41f eb39 ab37 983e c9b7 85be fb9e 04bf
00000210: 097a f3be 30b3 1cbf 94f3 0abd d1dd a4bd
00000220: ac6e 253d 12c7 613e 64a0 883e cabb 01be
00000230: 3c7a bf3e 410d b2bd cdbd ab3d 9298 493e
00000240: c821 55be 0134 323d 91a7 88be 8176 a7bd
00000250: c15a 943e 6d67 5e3e a0bb 89be d830 433e
00000260: 14df 883d 7309 9bbe 3439 f83e 7260 15bc
00000270: 9d15 adbe 4eaa 2fbe b0b3 ef3e 7ab9 7ebe
00000280: 4bf8 94be 90e2 dcbe 35ca 9a3c 7c28 d0be
00000290: 8924 af3e c37b 1cbe 5887 a1be 64c5 9cbe
000002a0: 4373 b8be 89f3 e4bd 8075 0abf 21be b53e
000002b0: c9d2 453e 212a f2be eec9 053f 6c90 75bd
000002c0: 35c3 2ebe 2ad0 923e 2693 bfbe 842c 16bf
000002d0: afca 12be 90bf e8be a580 a2bd 8223 62be
000002e0: b6e0 adbd 1054 373e 23e3 69be e3db 4a3d
000002f0: 7f48 693e 9ed4 b7be 5949 973e 8163 6fbe
00000300: 1b67 09be 2e8a 833e 50db 013f f417 ec3d
00000310: a38b a1be ef77 bcbe 3480 c4be cad1 b83d
00000320: 45ec a0be 5de0 03be 9fac 8e3e dcca 0ebd
00000330: def1 3a3e feb5 4b3d e7a0 2a3e 8e1c 39bd
00000340: 273a bbbe f503 01bf c27a 933e 8790 df3d
00000350: 5919 b9be 050b 883e 3faf b43e 050b 6f3e
00000360: 9cee eabe be45 0abf c52f cabe 1715 18be
00000370: dd26 783e 11b3 68be c233 0b3f 727d 13bb
00000380: 4a8b 623e fd3f 183e 5cbf e33e 6899 27bd
00000390: d3d3 873e bd72 1ebc 95b6 df3e 6783 f0be
000003a0: de32 d4be a78f efbe 1c82 0cbe ec4a cabe
000003b0: 4ff0 043e c765 febe 83ff 60be 3f5a c23e
000003c0: 6280 213d 239a fc3e c98d d33e 1f1b ec3e
000003d0: ad73 21be 75bd 17bf 0143 01be 6398 cd3c
000003e0: 59c3 b0be 3473 1b3d bec0 e2be 1abf 0cbf
000003f0: 4a0a 74be 4762 a6be 05d0 923d b994 b2be

conv1.bias f4 [32]
-0.10797025 -0.4424307 -0.20203158 0.08646429 -0.33904654 -0.0853686 0.09063097 -0.35429293
0.006425597 -0.043978192 0.16049248 0.047639333 -0.051350564 -0.123101644 0.123624824 -0.21756178
-0.025561921 -0.1157956 0.12920867 -0.02399861 0.085263826 -0.073118106 -0.01393526 0.024216313
-0.06102942 -0.042259336 0.089077175 0.15264668 -0.23610438 -0.061340507 -0.04563293 0.05418469
00000000: 821f ddbd 4786 e2be 5ee1 4ebe 3114 b13d
00000010: 8297 adbe bcd5 aebd bb9c b93d e265 b5be
00000020: d08d d23b 7a22 34bd 2458 243e 7621 433d
00000030: f854 52bd b71c fcbd 032f fd3d 84c8 5ebe
00000040: 3c67 d1bc 3e26 edbd 474f 043e bc98 c4bc
00000050: cd9e ae3d f2be 95bd b750 64bc 4a61 c63c
00000060: fcf9 79bd 2018 2dbd 186e b63d 694f 1c3e
00000070: 59c5 71be 2f40 7bbd 98e9 3abd c4f0 5d3d

conv2.weight f4 [64, 32, 3, 3]
-0.18466236 -0.15778664 -0.18020615 0.13679236 0.009634832 -0.08660874 0.012658497 0.19421476
0.11096135 0.0022023825 -7.407679e-05 -0.019054782 -0.15444177 0.017411323 0.0510169 -0.16332862
-0.09466285 0.025379827 0.011246301 0.07182995 -0.03735541 -0.2651558 -0.09304773 -0.15185304
-0.058149394 -0.07649817 -0.05649042 -0.023329988 0.09161694 0.044854473 -0.06856234 -0.012710994
0.078419365 -0.032626756 -0.10321731 -0.05729849 -0.08664697 -0.07524742 -0.09559771 0.032627523
0.09200885 0.031705733 -0.0459146 0.007385513 0.099699154 -0.057922274 -0.00130279 0.00690536
-0.13292424 0.030966364 0.03942498 -0.0041161976 -0.14224416 0.011392683 -0.07530602 -0.10766481
-0.11363468 -0.043284394 0.07443371 0.0125568705 -0.14460377 0.0047659837 0.0607339 -0.061573893
-0.043930616 -0.14854036 -0.086635314 0.026105195 -0.10359599 -0.16385213 -0.081953116 -0.008805647
-0.09205624 -0.039123315 -0.008465792 -0.026969314 0.04357196 -0.005830172 -0.044208877 -0.012555905
-0.00433523 0.06682215 0.18352632 -0.018486176 -0.19361646 0.034371447 0.09269549 -0.04530636
-0.18736215 -0.018700954 0.09332152 0.060914073 0.03692008 0.04481413 -0.052128952 -0.087234564
0.04180486 0.009406654 -0.21767506 -0.038507737 -0.08298753 -0.011708862 -0.17705798 -0.010730067
-0.01213023 -0.105224796 -0.2612727 -0.13447092 0.13642062 0.055326603 0.031272706 0.043513406
-0.08515813 0.009994665 -0.013601523 -0.23321474 -0.15395801 0.025351658 -0.07827355 -0.193483
0.12592895 0.04857966 -0.12522866 0.06184024 0.13064963 -0.039163373 -0.10619522 -0.07133956
-0.07252235 -0.07750121 -0.123780034 -0.25271478 -0.09062799 -0.19495288 -0.28290254 -0.10734797
-0.05644469 -0.14801578 -0.039737068 0.0003376834 -0.03363251 -0.13878411 -0.027593018 0.060653742
0.011657486 0.00012897482 -0.0983603 0.0013902101 0.107766084 0.025919463 -0.060961228 0.023090044
0.15397769 -0.16343436 -0.09793167 -0.04385509 0.14170346 -0.021103691 -0.0481151 0.14935683
0.10372797 0.19907111 -0.061564695 -0.05445532 -0.008171631 0.031427205 -0.051984146 -0.038029667
0.08217764 0.051557288 -0.07181281 -0.09920089 0.0076793632 -0.04227059 -0.0444085 -0.01192065
-0.16183555 -0.17858332 -0.29620832 -0.21265529 0.09014214 0.04807943 0.035619404 0.063018836
0.019479856 -0.08828979 0.00089257135 -0.044464093 -0.14140354 -0.14240652 -0.042585213 -0.029211322
0.025161399 0.028696667 -0.14369325 -0.015358018 0.11857136 0.057479426 -0.012745097 0.006916405
0.029230863 -0.12822644 0.079455525 -0.0101373205 -0.15101656 -0.064891644 0.01824483 -0.012291967
0.06702876 0.014657418 -0.20375659 0.14115812 0.1561851 -0.07474684 -0.12165498 0.13805316
0.05290342 0.16634332 0.080511056 -0.12721227 -0.1445434 0.16298658 0.113644876 -0.16828123
-0.0040290896 -0.23448755 -0.11716448 -0.17435932 -0.0248532 -0.08171532 -0.21580787 -0.06196461
0.074453555 0.057925135 0.04671155 -0.0037140746 -0.06269925 -0.033536986 0.03865729 -0.0678981
-0.081356995 -0.0762981 -0.061447848 -0.007703186 -0.007008065 0.01738375 0.07808435 -0.0431445
0.0011380955 0.030940201 -0.099946424 -0.23984785 0.070986554 0.11169123 -0.1701742 0.056718025
00000000: 2118 3dbe d292 21be f687 38be 4c13 0c3e
00000010: 6adb 1d3c ec5f b1bd 9665 4f3c 3ce0 463e
00000020: b43f e33d d955 103b ac59 9bb8 c618 9cbc
00000030: fc25 1ebe 31a2 8e3c 19f7 503d 9e3f 27be
00000040: 99de c1bd 5be9 cf3c 6842 383c 951b 933d
00000050: fd01 19bd 80c2 87be cf8f bebd 5d7f 1bbe
00000060: 0f2e 6ebd 13ab 9cbd 8062 67bd 881e bfbc
00000070: aaa1 bb3d 53b9 373d 6a6a 8cbd c641 50bc
00000080: 559a a03d a2a3 05bd 9963 d3bd d2b1 6abd
00000090: f773 b1bd 521b 9abd bbc8 c3bd 70a4 053d
000000a0: 236f bc3d dfdd 013d f310 3cbd 2c02 f23b
000000b0: 122f cc3d e83f 6dbd 61c2 aaba 5c46 e23b
000000c0: 4b1d 08be 2cad fd3c 167c 213d 2be1 86bb
000000d0: 74a8 11be 60a8 3a3c 0b3a 9abd 5e7f dcbd
000000e0: 4db9 e8bd fa4a 31bd b370 983d 55bb 4d3c
000000f0: 0313 14be f82b 9c3b 1cc4 783d e834 7cbd
00000100: 97f0 33bd f71a 18be db6d b1bd 90da d53c
00000110: 222a d4bd dac8 27be 09d7 a7bd 8f45 10bc
00000120: fb87 bcbd c53f 20bd 1bb4 0abc c0ee dcbc
00000130: 8378 323d 070b bfbb 5e14 35bd 48b7 4dbc
00000140: 8c0e 8ebb 0dda 883d 53ee 3b3e 5270 97bc
00000150: 6543 46be 13c9 0c3d 22d7 bd3d 2993 39bd
00000160: dddb 3fbe be32 99bc 5a1f bf3d 0981 793d
00000170: 8339 173d 058f 373d 2b85 55bd 09a8 b2bd
00000180: 933b 2b3d 5e1e 1a3c 36e6 5ebe 4aba 1dbd
00000190: 5ef5 a9bd 87d6 3fbc b04e 35be 2acd 2fbc
000001a0: dfbd 46bc 1980 d7bd 89c5 85be bfb2 09be
000001b0: d9b1 0b3e 269e 623d cf17 003d 1d3b 323d
000001c0: 6367 aebd aac0 233c ecd8 5ebc d8cf 6ebe
000001d0: 2ba7 1dbe 48ae cf3c e24d a0bd 6820 46be
000001e0: 85f3 003e 77fb 463d f13b 00be 314c 7d3d
000001f0: 04c9 053e c669 20bd e17c d9bd 7a1a 92bd
00000200: 9986 94bd f4b8 9ebd 6380 fdbd d563 81be
00000210: 2b9b b9bd baa1 47be 9ad8 90be 41d9 dbbd
00000220: 8c32 67bd 7391 17be 56c3 22bd 190b b139
00000230: 3ec2 09bd 6c1d 0ebe c10a e2bc 0f70 783d
00000240: 0aff 3e3c 6a3d 0739 2071 c9bd b637 b63a
00000250: 77b4 dc3d 0e55 d43c 7bb2 79bd 5527 bd3c
00000260: 54ac 1d3e 565b 27be 6690 c8bd 65a1 33bd
00000270: b61a 113e a6e1 acbc 5714 45bd fff0 183e
00000280: 546f d43d 4cd9 4b3e 432b 7cbd 8b0c 5fbd
00000290: 4ee2 05bc d0b9 003d 54ed 54bd ffc4 1bbd
000002a0: c04c a83d bc2d 533d 9812 93bd d629 cbbd
000002b0: 2ba3 fb3b ed23 2dbd b0e5 35bd d44e 43bc
000002c0: 38b8 25be 8cde 36be 9ea8 97be 4fc2 59be
000002d0: 719c b83d f0ee 443d a7e5 113d 0510 813d
000002e0: 3894 9f3c 47d1 b4bd 73fb 693a fb1f 36bd
000002f0: 17cc 10be 04d3 11be d56d 2ebd 954c efbc
00000300: 471f ce3c 4615 eb3c 5324 13be 32a0 7bbc
00000310: 8bd5 f23d 8c6f 6b3d d0d0 50bc 03a3 e23b
00000320: 9075 ef3c cb4d 03be 94b9 a23d 0117 26bc
00000330: 16a4 1abe e9e5 84bd 2f76 953c 3f64 49bc
00000340: 6046 893d ab25 703c 91a5 50be c18b 103e
00000350: fdee 1f3e df14 99bd 3f26 f9bd cf5d 0d3e
00000360: 42b1 583d e755 2a3e fbe2 a43d ef43 02be
00000370: 2f03 14be f4e5 263e a5be e83d ea51 2cbe
00000380: 7406 84bb 811d 70be eef3 efbd 408b 32be
00000390: f098 cbbc 5d5a a7bd bdfc 5cbe 9ace 7dbd
000003a0: 1b7b 983d e842 6d3d 9c54 3f3d d567 73bb
000003b0: 7768 80bd 145e 09bd 1b57 1e3d 290e 8bbd
000003c0: 7f9e a6bd 2e42 9cbd bdb0 7bbd 026b fcbb
000003d0: e9a3 e5bb 5e68 8e3c b0ea 9f3d 4ab8 30bd
000003e0: 262c 953a 4e76 fd3c b6b0 ccbd ad9a 75be
000003f0: 6661 913d 5fbe e43d 2542 2ebe 2951 683d

conv2.bias f4 [64]
0.01617463 -0.068513185 0.013249582 -0.032110903 -0.055325564 -0.00988988 0.027147576 -0.0152107375
-0.0076375473 0.033749495 -0.04797785 -0.076890744 -0.065614626 0.013269338 -0.033865165 0.019574936
-0.018109672 -0.002638013 -0.07381261 -0.017292373 -0.020896692 -0.008732823 -0.014149824 -0.0843731
0.023463475 0.0018951579 0.09501049 -0.022635521 0.0066085737 0.087470174 -0.08240476 -0.08017428
-0.029407818 0.022272855 -0.06329609 -0.0117170615 -0.036212508 -0.07724545 -0.0025937825 -0.026180033
-0.03945787 -0.06361054 0.03363109 -0.064858355 -0.00047266216 -0.022960927 -0.01225905 -0.01088561
-0.05586727 -0.088332325 -0.082305826 0.06827776 0.017507918 -0.044629034 0.07479389 -0.004486683
0.08252176 0.014055651 -0.051373888 -0.0030271076 -0.004215275 -0.03263884 -0.0053403256 -0.037887868
00000000: a880 843c a450 8cbd c614 593c b986 03bd
00000010: 0f9d 62bd 2a09 22bc 9864 de3c 7536 79bc
00000020: 6444 fabb e93c 0a3d 6c84 44bd e578 9dbd
00000030: f660 86bd a367 593c 33b6 0abd 9e5b a03c
00000040: bc5a 94bc 84e2 2cbb 112b 97bd bca8 8dbc
00000050: 8a2f abbc 1d14 0fbc aad4 67bc cecb acbd
00000060: 7936 c03c f266 f83a dc94 c23d 216e b9bc
00000070: bc8c d83b 9023 b33d d4c3 a8bd 6a32 a4bd
00000080: aae8 f0bc 9075 b63c 61a1 81bd ebf8 3fbc
00000090: 9153 14bd dd32 9ebd 73fc 29bb 8277 d6bc
000000a0: 939e 21bd 3e46 82bd c1c0 093d 75d4 84bd
000000b0: a4cf f7b9 8e18 bcbc 2fda 48bc 8f59 32bc
000000c0: 14d5 64bd 94e7 b4bd f58f a8bd 36d5 8b3d
000000d0: c46c 8f3c efcc 36bd 8a2d 993d 0605 93bb
000000e0: 2b01 a93d ac49 663c 6d6d 52bd 7062 46bb
000000f0: 4a20 8abb 4eb0 05bd e6fd aebb 4f30 1bbd

conv3.weight f4 [128, 64, 3, 3]
-0.04431265 0.032669894 0.009036748 0.09654789 0.08038087 0.03199122 -0.048678726 -0.15790899
-0.181683 -0.101222344 -0.07527934 0.023173314 0.10668101 -0.018968903 -0.0858557 -0.104762666
-0.07871168 -0.119527444 -0.060260396 0.034205616 -0.07190457 0.042293236 0.017590811 -0.12668996
-0.010680277 -0.11240594 -0.08769744 0.049178366 -0.0026513953 0.07098037 -0.027179088 -0.03735762
0.099319495 0.04484332 -0.08424428 -0.00408256 0.06208088 -0.0147500485 -0.11857902 0.0061752135
-0.113757506 0.005829106 -0.0056603514 -0.04318329 -0.06613314 -0.04150095 -0.117987946 -0.050833102
0.15305564 0.070750184 -0.1308555 0.013770066 -0.05513874 -0.07395263 -0.015715268 -0.08919233
-0.07890345 -0.055752642 -0.009645778 -0.032940462 -0.060308773 -0.0347299 0.051339775 0.048862454
-0.06589806 0.06416491 0.14833093 -0.061796658 0.030122036 0.03338424 -0.06761262 -0.0052770413
-0.09847064 -0.03529546 -0.015489079 0.03684355 0.0074755442 -0.0043524257 0.04477246 0.018690517
-0.065823466 0.065860964 -0.029987954 0.029283313 0.03516304 -0.026860407 0.055652805 -0.10210973
0.057472307 0.072624736 0.08845192 0.07567954 -0.07595479 -0.018492155 -0.1697005 -0.0086236885
0.19066764 -0.019213025 -0.055569533 -0.09912485 -0.031314686 -0.005129041 -0.06942076 0.0561985
0.09932312 0.0096563455 0.014942758 -0.0968065 0.029942788 0.061252754 -0.16505882 -0.06789681
-0.019220686 0.03597566 0.17446098 0.104001686 0.062580064 -0.14390656 0.071929745 0.042817492
0.1430362 -0.00022103304 -0.022276556 0.16624661 0.027727233 -0.039034482 0.04521668 -0.018899685
0.0036943099 0.023562215 -0.03640049 -0.010288356 0.025061125 0.017239343 0.00082949025 0.06507436
-0.03351495 -0.004461305 0.028050276 -0.03531542 -0.0127136 -0.024516307 -0.05804949 0.015836926
0.08552111 0.018073114 -0.03459505 -0.07235766 -0.04509785 -0.2765155 0.022757249 -0.113777794
-0.12199541 -0.06588949 -0.10190592 0.12003448 -0.0054430915 0.05338234 0.04324539 -0.09654711
0.018314008 -0.04185584 -0.032104496 0.016025594 0.07000457 -0.00046343997 -0.017091691 -0.06899028
0.08374407 0.100215174 -0.010148742 0.0010668685 -0.0069449297 -0.0024043738 -0.011053645 -0.046849314
-0.040717557 0.004224543 -0.037889946 -0.008744538 0.044634316 0.005693357 0.06954635 0.02969851
0.010530643 -0.020347543 -0.034416173 -0.11196567 -0.04791311 0.016566632 -0.014148344 0.050714847
0.084919 0.0029184823 -0.05664633 0.070600726 0.022347521 -0.09842883 0.0056373784 -0.07586363
0.058671415 -0.022539586 0.02915867 -0.03158035 0.067857236 0.08742968 -0.049002483 -0.0042868773
-0.027093004 -0.021383762 0.03723091 0.07201132 0.027481778 0.047303583 -0.12441371 0.09275581
-0.055406686 0.016605474 0.0018324448 -0.03441432 -0.010809063 -0.10207104 0.02215376 -0.121098176
0.06017558 0.029033309 0.06488239 -0.061186876 0.0008437085 -0.0053095897 -0.1032222 0.05478749
0.020070331 -0.007026492 -0.061333098 -0.06063799 -0.03181442 -0.09886462 -0.08459422 -0.09680447
-0.039389465 -0.10288876 -0.0094608115 0.043291725 -0.006793417 -0.08842907 -0.089547984 -0.067059435
-0.051570296 0.1369928 -0.028808385 -0.11951366 -0.03156014 0.011671688 -0.0043957983 0.059001453
00000000: 2e81 35bd ded0 053d de0e 143c e6ba c53d
00000010: ba9e a43d 3a09 033d 5863 47bd e5b2 21be
00000020: 1c0b 3abe a94d cfbd 0e2c 9abd f6d5 bd3c
00000030: 937b da3d ac64 9bbc 1dd5 afbd cf8d d6bd
00000040: 9733 a1bd ceca f4bd 9bd3 76bd 301b 0c3d
00000050: b442 93bd ac3b 2d3d 9b1a 903c 03bb 01be
00000060: 54fc 2ebc 1635 e6bd b79a b3bd 416f 493d
00000070: 08c3 2dbb 285e 913d aea6 debc 4e04 19bd
00000080: 0568 cb3d a1ad 373d 4488 acbd ffc6 85bb
00000090: 8548 7e3d 30aa 71bc 8fd9 f2bd 7259 ca3b
000000a0: b2f9 e8bd 1602 bf3b 787a b9bb f6e0 30bd
000000b0: d070 87bd e6fc 29bd aaa3 f1bd 5f36 50bd
000000c0: 9eba 1c3e 79e5 903d fcfe 05be d89b 613c
000000d0: 29d9 61bd 7a74 97bd 4ebd 80bc 78aa b6bd
000000e0: 2298 a1bd e25c 64bd 5309 1ebc 94ec 06bd
000000f0: 5506 77bd f140 0ebd a849 523d ff23 483d
00000100: 90f5 86bd e468 833d 10e4 173e 7e1e 7dbd
00000110: 7dc2 f63c eabd 083d 7c78 8abd 08eb acbb
00000120: faaa c9bd f991 10bd e8c5 7dbc 43e9 163d
00000130: 69f5 f43b cb9e 8ebb 5463 373d db1c 993c
00000140: 74ce 86bd 1de2 863d 4ca9 f5bc 8fe3 ef3c
00000150: 1f07 103d 5b0a dcbc 32f4 633d e81e d1bd
00000160: 1568 6b3d 47bc 943d 4826 b53d e0fd 9a3d
00000170: 2f8e 9bbd dc7c 97bc f8c5 2dbe 5f4a 0dbc
00000180: 613e 433e a264 9dbc e19c 63bd f801 cbbd
00000190: d443 00bd 8411 a8bb 792c 8ebd 6630 663d
000001a0: ec69 cb3d a635 1e3c 78d2 743c 7c42 c6bd
000001b0: 944a f53c 2be4 7a3d 2e05 29be 7c0d 8bbd
000001c0: b374 9dbc 375b 133d e6a5 323e d6fe d43d
000001d0: fa29 803d 3e5c 13be e74f 933d 6561 2f3d
000001e0: 1578 123e 1bc5 67b9 537d b6bc 8d3c 2a3e
000001f0: 3924 e33c 9fe2 1fbd 2035 393d 83d3 9abc
00000200: 3c1c 723b 8c05 c13c ae18 15bd 7e90 28bc
00000210: fd4c cd3c 8639 8d3c 2672 593a b545 853d
00000220: f946 09bd 2430 92bb b1c9 e53c e7a6 10bd
00000230: b44c 50bc 6cd6 c8bc 4dc5 6dbd 71bc 813c
00000240: b125 af3d 110e 943c 8ab3 0dbd 4130 94bd
00000250: 86b8 38bd 7193 8dbe 696d ba3c 5504 e9bd
00000260: bbd8 f9bd 12f1 86bd 0db4 d0bd a3d4 f53d
00000270: f65b b2bb 71a7 5a3d 1422 313d 7eba c5bd
00000280: 4207 963c 0771 2bbd 0180 03bd 1b48 833c
00000290: 8e5e 8f3d dcf9 f2b9 e003 8cbc c74a 8dbd
000002a0: 0382 ab3d 9d3d cd3d e946 26bc 2bd6 8b3a
000002b0: 4b92 e3bb b392 1dbb 591a 35bc 11e5 3fbd
000002c0: 74c7 26bd 096e 8a3b 7d32 1bbd 4045 0fbc
000002d0: 79d2 363d 578f ba3b 516e 8e3d 4a4a f33c
000002e0: b888 2c3c e4af a6bc f9f7 0cbd 424e e5bd
000002f0: 8a40 44bd bfb6 873c 75ce 67bc 5fba 4f3d
00000300: 03ea ad3d 0244 3f3b fb05 68bd 1d97 903d
00000310: 2612 b73c 0e95 c9bd c2b9 b83b 645e 9bbd
00000320: 7051 703d f0a4 b8bc 2ade ee3c 665a 01bd
00000330: bcf8 8a3d 550e b33d d4b6 48bd ef78 8cbb
00000340: 26f2 ddbc 002d afbc 707f 183d ac7a 933d
00000350: 7721 e13c 67c1 413d 9dcc febd c2f6 bd3d
00000360: 1ff2 62bd 3408 883c a52e f03a 08f6 0cbd
00000370: 7f18 31bc 9f0a d1bd cd7b b53c 5202 f8bd
00000380: ab7a 763d 43d7 ed3c 0fe1 843d 179f 7abd
00000390: 522c 5d3a 11fc adbb 2966 d3bd d968 603d
000003a0: 896a a43c 7d3e e6bb 6a38 7bbd 8a5f 78bd
000003b0: d64f 02bd 8979 cabd bc3f adbd 6c41 c6bd
000003c0: d956 21bd 58b7 d2bd 8501 1bbc aa52 313d
000003d0: 509b debb 4d1a b5bd ef64 b7bd 7556 89bd
000003e0: 603b 53bd d747 0c3e 90ff ebbc 94c3 f4bd
000003f0: 3545 01bd 9c3a 3f3c a10a 90bb 82ab 713d

conv3.bias f4 [128]
-0.0022716946 0.008565403 -0.045295253 -0.028703906 -0.066090345 -0.051948223 0.0013601995 -0.081205286
0.018456109 0.02644237 -0.031757917 0.011051796 -0.0466056 -0.046662543 -0.015425033 -0.01873372
-0.050841846 -0.033209503 -0.043904845 0.00033953265 -0.08226838 0.027016548 -0.06637184 0.015764788
-0.015859388 -0.031399563 -0.011972646 0.0041908566 -0.07390057 -0.0058544017 -0.020490916 0.006177956
-0.037410457 -0.01579419 -0.0019620715 0.024312476 -0.0558924 -0.0010838122 -0.047115535 -0.015403008
-0.026645007 -0.044424158 -0.027368313 -0.040537268 -0.033596255 -0.02796178 0.013087192 -0.045824524
0.0060179145 0.019665653 0.015982568 -0.0178957 0.003593584 -0.02836324 -0.027492704 8.754259e-05
-0.00012410161 -0.0476753 0.0023045158 -0.030927002 -0.017962232 -0.05512272 -0.04085369 -0.023216635
-0.040450975 -0.02901002 -0.024592355 -0.045418207 -0.009102265 0.008404038 -0.082824364 -0.011974581
-0.04444329 -0.051099513 -0.040114246 -0.060874633 -0.022871092 0.009718655 -0.007235478 -0.0083681345
-0.006448927 -0.03495973 -0.041747157 0.035548978 -0.04963868 0.04312835 0.014163794 -0.03533887
-0.021771977 -0.06616396 -0.023436787 0.008857007 -0.028260473 -0.03135518 0.01779625 -0.09131807
0.00846287 0.008966053 -0.043634377 -0.007975769 -0.08057854 -0.10357632 -0.012966115 0.00024622274
-0.0066681295 0.012179925 0.018183425 -0.033927884 0.005286099 -0.039041396 -0.0062903706 0.0089050345
-0.05534038 0.026383886 0.042931683 -0.046339914 -0.017783092 -0.031809613 -0.10084009 0.013824385
-0.05374667 -0.044032373 -0.060165737 -0.04638746 0.06524064 -0.00033845392 -0.045634683 -0.036836576
00000000: b6e0 14bb e755 0c3c 8487 39bd 7424 ebbc
00000010: 605a 87bd a9c7 54bd b948 b23a f54e a6bd
00000020: 4431 973c ab9d d83c 9714 02bd 9812 353c
00000030: 83e5 3ebd 3921 3fbd 47b9 7cbc 7577 99bc
00000040: 8a3f 50bd b006 08bd 91d5 33bd 4d03 b239
00000050: 537c a8bd cf51 dd3c f6ed 87bd 2825 813c
00000060: 8ceb 81bc d49c 00bd eb28 44bc 7453 893b
00000070: 2f59 97bd 48d6 bfbb 91dc a7bc 7370 ca3b
00000080: b53b 19bd d162 81bc 1996 00bb f52a c73c
00000090: 6eef 64bd b40e 8eba 38fc 40bd e65c 7cbc
000000a0: a146 dabc 1bf6 35bd 8333 e0bc 680a 26bd
000000b0: 3a9c 09bd 1a10 e5bc a96b 563c 7fb2 3bbd
000000c0: ed31 c53b dd19 a13c e0ed 823c 019a 92bc
000000d0: 5682 6b3b 075a e8bc 6138 e1bc 1297 b738
000000e0: 4621 02b9 2d47 43bd 5c07 173b a05a fdbc
000000f0: 8825 93bc 5cc8 61bd 3356 27bd d030 bebc
00000100: ecaf 25bd 6ca6 edbc e875 c9bc 7108 3abd
00000110: ab21 15bc 17b1 093c d29f a9bd 0831 44bc
00000120: 2b0a 36bd b94d 51bd d64e 24bd ae57 79bd
00000130: 285c bbbc fe3a 1f3c 9717 edbb 801a 09bc
00000140: 8551 d3bb ef31 0fbd 11ff 2abd ce9b 113d
00000150: ee51 4bbd 5aa7 303d 420f 683c 7ebf 10bd
00000160: 255b b2bc f880 87bd 81fe bfbc fb1c 113c
00000170: 8282 e7bc 4a6e 00bd 71c9 913c f804 bbbd
00000180: d9a7 0a3c 5ae6 123c f6b9 32bd cdac 02bc
00000190: 5d06 a5bd d21f d4bd d46f 54bc 7517 8139
000001a0: 5380 dabb 4f8e 473c 68f5 943c f7f7 0abd
000001b0: 0337 ad3b dfe9 1fbd 741f cebb 6ce6 113c
000001c0: 98ac 62bd 0523 d83c 22d9 2f3d ecce 3dbd
000001d0: d9ad 91bc cc4a 02bd 4085 cebd ac7f 623c
000001e0: 7825 5cbd 4a5b 34bd 5970 76bd c700 3ebd
000001f0: e29c 853d 8472 b1b9 6feb 3abd f3e1 16bd

fc1.weight f4 [10, 128]
-0.16406159 -0.2009182 -0.19301696 -0.12835021 -0.11329713 0.0050333715 -0.11811395 0.023290593
0.038828265 -0.06653617 -0.17516167 0.06391503 -0.03865734 -0.19253829 -0.22731169 0.03525089
-0.05921486 0.026922682 0.005444172 0.0068003265 -0.028020995 0.10243058 -0.08316933 -0.06422315
0.05774175 -0.009936698 -0.023107296 -0.09505237 0.09844966 -0.045034334 -0.22814244 -0.0049710693
-0.11768076 -0.038238656 0.1175626 -0.07879956 0.026384905 0.0583967 0.07127888 0.053357303
0.05549673 0.051211417 -0.04646367 0.102421366 0.07849358 -0.14249635 -0.04694736 0.02064365
0.10374215 -0.016430134 -0.1731147 -0.08504558 -0.21720341 0.104090996 -0.12678678 -0.05087397
-0.0489092 -0.09713161 0.033363644 -0.22980453 -0.030505987 0.02021973 -0.1125142 0.016427698
-0.12712482 -0.11430619 0.14178455 -0.05278589 -0.15346569 0.12560357 -0.30704013 -0.10472298
-0.028457208 -0.02323169 0.00645276 -0.09939005 0.046512492 0.013909984 0.11556704 0.008974122
0.06488823 -0.18366079 -0.072214186 0.066198416 -0.016780939 -0.20535979 0.13969336 -0.13731505
0.05978154 0.13072972 0.12760845 0.042858344 -0.16000056 0.101009205 0.11076795 0.01360482
-0.008258325 0.012939282 0.12312831 -0.05739258 -0.010053992 -0.122370616 0.029894223 -0.20531371
0.037182253 -0.08802323 -0.05185407 -0.16615379 -0.08298159 -0.056699056 0.15957263 -0.072740816
-0.1304506 -0.17942798 0.025367763 -0.102910936 0.0019637947 -0.042897485 -0.062940754 0.07321359
-0.0024037056 0.026369896 -0.22446866 0.061655853 -0.26487038 0.012493696 0.04815322 -0.015762242
-0.1311089 0.07268406 0.05079517 -0.30117777 0.009876511 0.11368306 -0.098149866 0.08701084
-0.35397407 0.008774291 -0.019316247 -0.043620676 -0.08570641 -0.027507357 0.119303994 -0.032595605
-0.008135862 0.115625314 -0.044574074 -0.042502154 0.063564904 -0.14413023 0.08683561 0.06634751
0.035361543 -0.017509375 -0.044512395 -0.18448934 -0.27231607 0.116541535 -0.18034011 -0.1895351
0.14663759 -0.18789701 0.037347175 0.033292707 -0.015034224 -0.029842053 -0.105438784 0.123258
-0.20204541 -0.047727145 -0.007828936 0.039337758 0.0061059445 -0.035115916 -0.26622647 0.069495544
0.08387013 -0.070143886 0.09535299 0.14331764 0.15532357 -0.21950832 -0.0632042 -0.0030132313
0.019823112 -0.027419226 -0.06878803 0.1684068 -0.013405452 -0.01409046 0.09298557 -0.21012357
0.0734243 0.010960557 0.12773947 -0.07233023 0.093587644 -0.07624655 -0.09506577 0.05937928
-0.14011037 -0.06861297 -0.008637692 0.085997425 0.0020866222 -0.06436285 -0.03470724 0.031563856
-0.10621847 -0.19140182 -0.07091603 -0.21724422 -0.31880373 0.086049385 -0.22431989 -0.09144727
0.12948431 -0.33122858 0.002867398 -0.25636703 0.027959025 -0.20587327 -0.24325731 -0.27996606
-0.06122416 0.08673217 -0.3331232 -0.057647593 0.025640905 -0.13114487 -0.097534664 -0.2588701
0.03185914 0.1113677 0.09070721 -0.12528498 -0.1610056 -0.0129623795 -0.05363962 0.07975657
-0.11800254 0.112566866 0.062485117 0.05558552 0.052528244 0.08596632 -0.018868653 0.0020285102
0.016814217 -0.035913303 -0.02170551 -0.060937166 0.11948502 -0.03472686 -0.009899222 -0.23696369
00000000: c3ff 27be 80bd 4dbe 3da6 45be 3d6e 03be
00000010: 5308 e8bd fbee a43b bae5 f1bd eacb be3c
00000020: 630a 1f3d 1e44 88bd 955d 33be e2e5 823d
00000030: 2957 1ebd c228 45be 65c4 68be 3d63 103d
00000040: 488b 72bd f58c dc3c 0665 b23b 46d5 de3b
00000050: 498c e5bc 20c7 d13d af54 aabd 6d87 83bd
00000060: 9d82 6c3d 88cd 22bc 834b bdbc d1aa c2bd
00000070: fa9f c93d ec75 38bd 2c9e 69be 5ae4 a2bb
00000080: 9c02 f1bd 23a0 1cbd a9c4 f03d aa61 a1bd
00000090: 2825 d83c 6131 6f3d a9fa 913d 308d 5a3d
000000a0: 8a50 633d 10c3 513d b050 3ebd 4bc2 d13d
000000b0: 3ec1 a03d 90ea 11be e04b 40bd df1c a93c
000000c0: c476 d43d 7d98 86bc fb44 31be 612c aebd
000000d0: 926a 5ebe a92d d53d 65d4 01be 3961 50bd
000000e0: 0355 48bd f0ec c6bd 51a8 083d e151 6bbe
000000f0: b1e7 f9bc d9a3 a53c d86d e6bd 6193 863c
00000100: 022d 02be 5d19 eabd f82f 113e 0436 58bd
00000110: 1c26 1dbe 399e 003e 5d34 9dbe 0079 d6bd
00000120: 171f e9bc 6350 bebc ad71 d33b 038d cbbd
00000130: e283 3e3d b4e6 633c 6aae ec3d 3208 133c
00000140: 1fe4 843d 9311 3cbe 08e5 93bd 0993 873d
00000150: 2e78 89bc d649 52be c70b 0f3e 519c 0cbe
00000160: 7ddd 743d 03de 053e caab 023e 3b8c 2f3d
00000170: 30d7 23be eadd ce3d 4fda e23d c0e6 5e3c
00000180: ed4d 07bc 48ff 533c b22a fc3d 7b14 6bbd
00000190: 80b9 24bc 729d fabd bbe4 f43c c23d 52be
000001a0: 6b4c 183d 8645 b4bd ef64 54bd 3824 2abe
000001b0: 40f2 a9bd 453d 68bd 0267 233e 23f9 94bd
000001c0: d894 05be f8bb 37be 0ed0 cf3c f8c2 d2bd
000001d0: 02b3 003b 46b5 2fbd 15e7 80bd 02f1 953d
000001e0: 7d87 1dbb ae05 d83c 1ddb 65be d98a 7c3d
000001f0: 179d 87be 5cb2 4c3c 503c 453d d11f 81bc
00000200: 6941 06be 61db 943d 990e 503d f933 9abe
00000210: 17d1 213c aad2 e83d cc02 c9bd bd32 b23d
00000220: 173c b5be 0bc2 0f3c 1b3d 9ebc 98ab 32bd
00000230: d886 afbd 1c57 e1bc a755 f43d f882 05bd
00000240: 474c 05bc f7cc ec3d 4e93 36bd bd16 2ebd
00000250: 512e 823d e096 13be ded6 b13d 34e1 873d
00000260: 44d7 103d d26f 8fbc a152 36bd c6ea 3cbe
00000270: 036d 8bbe 54ad ee3d 14ab 38be 7d15 42be
00000280: 2a28 163e 1368 40be 5af9 183d ef5d 083d
00000290: 1b52 76bc 5277 f4bc 4af0 d7bd b16e fc3d
000002a0: fee4 4ebe 8a7d 43bd f044 00bc a120 213d
000002b0: 6014 c83b b5d5 0fbd d64e 88be ae53 8e3d
000002c0: 1ac4 ab3d 99a7 8fbd 6e48 c33d dcc1 123e
000002d0: 240d 1f3e cac6 60be 3471 81bd a279 45bb
000002e0: 1464 a23c 499e e0bc bde0 8cbd d572 2c3e
000002f0: 8aa2 5bbc acdb 66bc 386f be3d a22a 57be
00000300: 7b5f 963d e893 333c 23ce 023e df21 94bd
00000310: e1aa bf3d 2727 9cbd d8b1 c2bd b037 733d
00000320: 1879 0fbe f584 8cbd 1b85 0dbc 6b1f b03d
00000330: b6bf 083b abd0 83bd 2e29 0ebd 1a49 013d
00000340: 1289 d9bd d7fe 43be 6c3c 91bd 4575 5ebe
00000350: 3e3a a3be a93a b03d 1db4 65be b548 bbbd
00000360: 8997 043e cb96 a9be f5ea 3b3b 8a42 83be
00000370: 530a e53c 71d0 52be 7218 79be b657 8fbe
00000380: 2fc6 7abd a3a0 b13d 208f aabe e21f 6cbd
00000390: e00c d23c d74a 06be 41c0 c7bd 9f8a 84be
000003a0: bb7e 023d c014 e43d b4c4 b93d b54a 00be
000003b0: a7de 24be 2960 54bc 38b5 5bbd 6a57 a33d
000003c0: 51ab f1bd 7589 e63d 65f0 7f3d a4ad 633d
000003d0: db27 573d 1c0f b03d 6f92 9abc c1f0 043b
000003e0: f8bd 893c d419 13bd c1cf b1bc 4099 79bd
000003f0: 90b4 f43d c03d 0ebd 5930 22bc 9ca6 72be

fc1.bias f4 [10]
0.1516321 0.15989101 -0.17833276 0.048865665 0.01691161 -0.09944225 0.0279622 -0.030394644
-0.0042576585 -0.22370051
00000000: 7245 1b3e 78ba 233e dd9c 36be 5d27 483d
00000010: 378a 8a3c 61a8 cbbd fc10 e53c 30fe f8bc
00000020: d483 8bbb bf11 65be
